P2_Continuous_Policy/actor_local.pth (torch, 289783 bytes, 8 tensors)

fc1.weight f4 [300, 33]
0.049950536 0.07497758 0.0088142445 -0.020393832 -0.0050112936 -0.027578393 -0.025568137 0.005981472
0.12161393 0.0020818196 -0.035498112 0.07529222 -0.0046596555 -0.0059738187 -0.049799044 -0.008596502
0.010595948 0.012929283 0.0034646834 0.021769855 -0.16469419 -0.0047793053 0.0067265164 0.0054816906
-0.032631293 0.046687838 0.029325083 -0.07275536 -0.024434233 0.034609728 0.036178935 -0.04781957
0.12559299 -0.13400424 0.079873145 -0.10676886 0.0061720437 -0.06088677 -0.021930808 0.016228547
0.001524867 0.028981972 -0.0036960999 -0.0017065012 0.011911591 0.026604686 0.014469781 -0.069382116
0.0022310126 -0.008093467 0.0019705058 0.043347348 0.017300474 -0.03538717 -0.06276523 0.03579795
-0.029128106 0.014661532 0.030485865 0.049857214 -0.018757189 0.037331756 -0.05267474 -0.0022585508
-0.03559657 0.20453867 -0.04872134 -0.08344705 0.004376728 0.0030025127 0.07121681 -0.0073830993
-0.02087997 -0.0032965408 0.1793556 -0.062431242 -0.10746125 0.007963239 0.02504207 0.07105709
-0.04970314 -0.037465256 0.04396942 0.021962682 0.01709347 0.040403992 -0.040162828 -0.0013605447
-7.8955374e-05 0.012869044 -0.03812682 0.03105464 -0.06071307 -0.031867173 0.029940346 -0.019804962
0.031964786 0.004927404 -0.09245218 -0.054148994 0.041802526 0.0069327257 0.003254012 -0.00026352023
-0.048098274 0.059401333 -0.03254044 -0.010598208 0.0054464987 -0.02128012 0.039839104 0.018008227
-0.031822078 -0.053060785 -0.017050212 0.008031231 0.016189996 -0.024514258 0.006277207 0.030418858
-0.024268469 -0.020525878 -0.07181472 -0.01246457 -0.08044977 -0.009648369 -0.047283918 -0.036637913
0.0384009 0.08860543 0.032602314 0.0034771287 0.059909124 0.015898535 -0.07068758 0.04706863
-0.0022424608 -0.0071807434 -0.037414905 0.018302087 -0.06259401 0.033146624 0.05443965 0.0046143527
0.024799386 -0.104566574 -0.07555278 0.08371999 0.011077469 -0.033998188 0.015301151 0.00023206265
0.0148860235 0.019206485 -0.010387598 -0.036744 -0.046529505 -0.021637492 0.038140565 -0.023699911
-0.048647195 -0.0035070386 0.014003008 -0.05218257 -0.03588713 -0.0026021937 0.031484414 0.020103507
0.006143166 0.030120233 0.0042051715 0.016990261 0.07486895 0.014776269 0.089619204 0.015677717
-0.0116447825 0.042981613 -0.007382363 -0.03733765 0.018712841 0.0116342455 0.008875096 -0.060694043
0.029767413 0.01303731 0.010578356 -0.024786422 -0.004946634 0.004253113 -0.041223805 0.0018673899
-0.028857091 -0.041324034 0.025468785 -0.002284562 0.017134449 -0.5407319 0.08132285 0.03235311
-0.009061919 0.042728115 0.025743349 -0.00055195787 -0.08396008 0.037716538 -0.0047890074 0.103377596
-0.0021654181 0.065208554 0.026226902 0.00052373594 0.021198856 0.062110182 0.028796395 -0.0010751854
-0.026126934 -0.0187629 -0.09808969 0.12616013 0.038945094 0.0068917023 -0.048662603 0.06775667
-0.0757324 0.044035953 0.0342497 0.034206398 -0.014478741 -0.03386604 0.085621774 0.02336112
-0.086036734 0.03483604 0.036686085 0.026402613 0.011249375 0.0032243684 -0.011299069 0.044983383
0.050241094 -0.012817904 -0.0037069481 -0.0067578107 -0.019776694 0.06914099 -0.031451948 0.05675066
0.0069422317 0.01993481 -0.025937764 0.0023480696 0.015724327 0.060628492 -0.016718406 0.02412314
00000000: ef98 4c3d d88d 993d 9f69 103c f710 a7bc
00000010: c735 a4bb 15ec e1bc 4574 d1bc 3900 c43b
00000020: b910 f93d 236f 083b 7866 11bd cf32 9a3d
00000030: 06b0 98bb 06c0 c3bb 15fa 4bbd 58d8 0cbc
00000040: a19a 2d3c 58d5 533c be0f 633b b256 b23c
00000050: 98a5 28be b89b 9cbb 1c6a dc3b c19f b33b
00000060: 64a8 05bd bf3b 3f3d 283b f03c c300 95bd
00000070: 4d2a c8bc eec2 0d3d 5d30 143d 74de 43bd
00000080: 739b 003e 6838 09be 8894 a33d a2a9 dabd
00000090: db3e ca3b 6864 79bd 3da8 b3bc bbf1 843c
000000a0: 0cde c73a 9a6b ed3c 443a 72bb aeac dfba
000000b0: d528 433c 12f2 d93c a912 6d3c 3618 8ebd
000000c0: 2e36 123b 769a 04bc 9a23 013b fd8c 313d
000000d0: b9b9 8d3c 23f2 10bd 0f8b 80bd dfa0 123d
000000e0: 119e eebc ec36 703c 7ebd f93c 1437 4c3d
000000f0: ada8 99bc 2fe9 183d 78c1 57bd 3204 14bb
00000100: b5cd 11bd 9672 513e 0790 47bd 49e6 aabd
00000110: a86a 8f3b cec5 443b 1eda 913d eded f1bb
00000120: 790c abbc c70a 58bb ffa8 373e e7b7 7fbd
00000130: a514 dcbd 3f78 023c 0725 cd3c 6186 913d
00000140: 8595 4bbd 2b75 19bd 4719 343d 15eb b33c
00000150: 9b07 8c3c a87e 253d c781 24bd 4e54 b2ba
00000160: d894 a5b8 afd8 523c de2a 1cbd 4d66 fe3c
00000170: 45ae 78bd 2787 02bd 7545 f53c 043e a2bc
00000180: 82ed 023d 1076 a13b 9257 bdbd 56cb 5dbd
00000190: 2039 2b3d eb2b e33b 4341 553b 1629 8ab9
000001a0: b202 45bd d04e 733d 2049 05bd 1ba4 2dbc
000001b0: 8b78 b23b a553 aebc 542e 233d fd85 933c
000001c0: de57 02bd 4456 59bd e3ac 8bbc 6d95 033c
000001d0: e2a0 843c 20d2 c8bc 07b1 cd3b f830 f93c
000001e0: abce c6bc e325 a8bc 9913 93bd 3238 4cbc
000001f0: d9c2 a4bd 3114 1ebc c8ac 41bd a311 16bd
00000200: 434a 1d3d c476 b53d 018a 053d 8ae0 633b
00000210: 4563 753d a53d 823c a6c4 90bd 09cb 403d
00000220: 40f6 12bb 714c ebbb 5f40 19bd 42ee 953c
00000230: 4a31 80bd c1c4 073d 1cfc 5e3d ff33 973b
00000240: 1528 cb3c 0027 d6bd 6abb 9abd 6375 ab3d
00000250: 467e 353c af41 0bbd aeb1 7a3c d855 7339
00000260: 82e4 733c eb56 9d3c be30 2abc e080 16bd
00000270: b995 3ebd 1c41 b1bc 4839 1c3d 5126 c2bc
00000280: 4842 47bd 58d6 65bb df6c 653c 64bd 55bd
00000290: 62fe 12bd 9189 2abb cdf5 003d 1cb0 a43c
000002a0: 9d4c c93b b5be f63c 89cb 893b 292f 8b3c
000002b0: e454 993d 2a18 723c 468a b73d 8e6e 803c
000002c0: c2c9 3ebc 7d0d 303d c0e7 f1bb 5def 18bd
000002d0: ac4b 993c 909d 3e3c da68 113c 519a 78bd
000002e0: cada f33c 719a 553c d750 2d3c e50c cbbc
000002f0: 6017 a2bb b35d 8b3b 4bda 28bd 35c3 f43a
00000300: b565 ecbc 6443 29bd eaa3 d03c 97b8 15bb
00000310: 8b5d 8c3c 686d 0abf 988c a63d b284 043d
00000320: 7178 14bc ad03 2f3d b7e3 d23c 44b1 10ba
00000330: 43f3 abbd a87c 1a3d 1bed 9cbb a2b7 d33d
00000340: b0e9 0dbb 108c 853d cdd9 d63c 534b 093a
00000350: 39a9 ad3c 3f67 7e3d 6be6 eb3c 3ced 8cba
00000360: 2708 d6bc a7b4 99bc 3fe3 c8bd 1f30 013e
00000370: e484 1f3d cad3 e13b 7052 47bd 02c4 8a3d
00000380: 9719 9bbd 0b5f 343d 6a49 0c3d 021c 0c3d
00000390: 3e38 6dbc 1eb7 0abd 785a af3d d25f bf3c
000003a0: 0734 b0bd 3cb0 0e3d 2644 163d 4b4a d83c
000003b0: 4c4f 383c ed4f 533b bb1f 39bc 7f40 383d
000003c0: 9bc9 4d3d 3002 52bc 45f0 72bb a070 ddbb
000003d0: bc02 a2bc cb99 8d3d c2d3 00bd 6173 683d
000003e0: a97b e33b 544e a33c 6f7b d4bc 12e2 193b
000003f0: 4ed0 803c 9555 783d 0af5 88bc e49d c53c

fc1.bias f4 [300]
-0.055022538 -0.13711153 -0.022720473 -0.007005718 0.017435411 0.12906802 0.07197164 0.14642426
0.21602161 -0.015094139 -0.13300167 -0.02590912 0.012465224 -0.009895231 0.15258448 0.11290857
-0.006822492 0.018288124 0.067583635 0.08099499 -0.06500832 0.24641041 0.004350174 -0.11390611
-0.078232914 0.052531265 -0.096339196 -0.014096301 -0.15477067 -0.024663854 0.096542 0.06415403
-0.046306323 0.010241244 -0.083746076 -0.02695303 0.16923217 -0.11729116 0.10623188 -0.11703613
0.047199532 -0.029774427 0.052842487 -0.15268077 0.14490989 0.1087166 -0.09036035 -0.12846397
0.03525585 -0.2007822 0.06295875 -0.07445113 -0.12252489 0.04774217 -0.03777909 -0.11878352
0.032745533 0.102583185 0.14482488 0.0967201 0.10151601 -0.040070374 -0.03432149 0.15221919
-0.09876664 0.14835434 0.04159572 0.11824234 0.034339946 -0.15958418 0.03954129 0.08738494
0.015354088 -0.07019136 0.12266883 -0.07901149 -0.012425408 -0.10156124 0.16111416 -0.06727447
0.02455122 0.13257833 0.003977277 -0.17973633 -0.0614646 0.0014884477 -0.17852248 0.016745666
-0.018026121 -0.04996697 0.1086039 0.16234332 -0.014384888 0.11088479 -0.015211632 0.09865184
-0.16161236 -0.06483095 -0.09525122 0.18620971 0.14586966 -0.042323593 -0.09166582 -0.1256028
0.07243731 0.03221239 -0.14323139 0.042659458 -0.0057105757 0.102395445 0.01716683 -0.11134672
0.06035807 0.02518609 0.03192141 0.15082666 -0.049925797 0.06724041 0.089789286 0.18355669
0.093558386 -0.06686664 -0.0001924796 -0.049906112 -0.09417759 -0.053367592 0.043100536 0.026644196
0.028963584 0.044491433 0.089327425 -0.18852371 0.026470605 0.0074502956 -0.035804868 -0.09346747
-0.022467965 -0.029582778 -0.057390243 -0.040837802 -0.06611579 -0.0064697317 -0.13507596 0.075917445
-0.12127507 0.006492826 -0.1467324 -0.00855667 0.0004651411 -0.12890184 -0.018440917 -0.042972602
-0.03691673 0.009517044 -0.04230541 0.03348934 -0.010760566 0.0431776 -0.11831506 0.17315787
-0.008062602 0.08050786 0.15359724 -0.07749416 -0.10582625 -0.046267644 -0.16887821 0.052888546
0.058230035 -0.15395954 -0.079780705 -0.045220185 0.099528745 0.16879313 0.2099637 -0.16932152
0.096064456 -0.14571106 0.09368355 0.08386441 -0.12556562 -0.077068664 -0.124741 -0.009510141
0.08501585 -0.061319552 0.043916486 -0.05975488 0.14388794 -0.10102759 -0.05086093 0.013933442
-0.11024425 0.048974443 -0.10022522 -0.005223992 -0.10687637 0.029845456 -0.091332294 0.10376697
-0.1284544 -0.0047997236 -0.06825737 -0.12530303 -0.17494111 0.08988669 0.1310519 0.0059944233
-0.055308104 0.09508412 0.08663128 -0.22052759 -0.1109796 0.17777729 0.09575168 -0.116097085
0.011919207 -0.15547316 -0.14852743 -0.07009705 0.13449907 -0.043367486 0.05037679 -0.17084824
0.05895541 0.18466738 -0.019226067 -0.015676513 -0.020400874 -0.1452226 0.03562116 -0.076049924
-0.10615314 0.13569033 0.15909919 -0.04321464 -0.04224482 0.026869465 0.041427907 -0.15585028
-0.067760676 0.06082544 0.0812181 -0.054460492 0.040084567 0.08682128 -0.09294667 0.14937516
0.10893834 -0.12918259 -0.09643933 0.13989747 0.10683695 -0.16226232 -0.21716052 -0.04868492
00000000: 505f 61bd f766 0cbe 4920 babc 3990 e5bb
00000010: b5d4 8e3c 682a 043e de65 933d 3ef0 153e
00000020: c534 5d3e 684d 77bc 9731 08be 5d3f d4bc
00000030: f03a 4c3c 9b1f 22bc 1b3f 1c3e 9c3c e73d
00000040: 368f dfbb fad0 953c 4a69 8a3d b4e0 a53d
00000050: 1523 85bd 0353 7c3e e88b 8e3b 9b47 e9bd
00000060: 9438 a0bd 062b 573d 7c4d c5bd 2cf4 66bc
00000070: 347c 1ebe da0b cabc d0b7 c53d 3063 833d
00000080: b3ab 3dbd e4ca 273c 1083 abbd 9acc dcbc
00000090: 334b 2d3e 5936 f0bd 1a90 d93d a3b0 efbd
000000a0: 4c54 413d 80e9 f3bc 5d71 583d 5958 1cbe
000000b0: 4263 143e cfa6 de3d d90e b9bd 0f8c 03be
000000c0: 7068 103d d999 4dbe 84f0 803d d679 98bd
000000d0: 54ee fabd 4b8d 433d 3fbe 1abd c644 f3bd
000000e0: 2e20 063d 2217 d23d f94c 143e 3015 c63d
000000f0: a0e7 cf3d d520 24bd b194 0cbd 59df 1b3e
00000100: 2a46 cabd 33ea 173e 4660 2a3d 0a29 f23d
00000110: 0ba8 0c3d 096a 23be 0cf6 213d e0f6 b23d
00000120: b68f 7b3c 7dc0 8fbd cc39 fb3d c7d0 a1bd
00000130: f093 4bbc 57ff cfbd 1cfb 243e 33c7 89bd
00000140: a41f c93c 9dc2 073e d153 823b cd0c 38be
00000150: 4ec2 7bbd 0418 c33a 99ce 36be 352e 893c
00000160: 84ab 93bc 2aaa 4cbd b96b de3d 543d 263e
00000170: 98ae 6bbc 9117 e33d 353a 79bc fa09 ca3d
00000180: b67d 25be 17c6 84bd 1213 c3bd c2ad 3e3e
00000190: db5e 153e 815b 2dbd 4abb bbbd 059e 00be
000001a0: 035a 943d 24f1 033d 40ab 12be afbb 2e3d
000001b0: c81f bbbb b4b4 d13d 74a1 8c3c c009 e4bd
000001c0: 063a 773d 0f53 ce3c 06c0 023d 4e72 1a3e
000001d0: fe7e 4cbd 57b5 893d 72e3 b73d 49f6 3b3e
000001e0: 8a9b bf3d 60f1 88bd 59d4 49b9 5a6a 4cbd
000001f0: 2ee0 c0bd fa97 5abd 308a 303d ee44 da3c
00000200: 0a45 ed3c a63c 363d 4cf1 b63d 5c0c 41be
00000210: e2d8 d83c 9c21 f43b 20a8 12bd df6b bfbd
00000220: bd0e b8bc 9557 f2bc 0812 6bbd 8a45 27bd
00000230: b767 87bd 0b00 d4bb 5a51 0abe 9b7a 9b3d
00000240: 105f f8bd c6c1 d43b 0541 16be 4631 0cbc
00000250: 2fde f339 d8fe 03be 6811 97bc 0a04 30bd
00000260: ff35 17bd 60ed 1b3c 7048 2dbd 1e2c 093d
00000270: 164d 30bc ffda 303d 2b4f f2bd 4c50 313e
00000280: 0119 04bc 4ee1 a43d 9848 1d3e 42b5 9ebd
00000290: 6fbb d8bd 2483 3dbd 69ee 2cbe a9a1 583d
000002a0: 9e82 6e3d 92a7 1dbe 1164 a3bd cd38 39bd
000002b0: bad5 cb3d 1bd8 2c3e b900 573e 9f62 2dbe
000002c0: 71bd c43d 4835 15be 29dd bf3d 1bc1 ab3d
000002d0: 4694 00be 2dd6 9dbd 3678 ffbd 6cd0 1bbc
000002e0: ca1c ae3d 362a 7bbd c6e1 333d 88c1 74bd
000002f0: 5c57 133e 8ee7 cebd 8d53 50bd 1749 643c
00000300: bdc7 e1bd 6d99 483d e142 cdbd 052e abbb
00000310: 00e2 dabd 757e f43c 6d0c bbbd c783 d43d
00000320: 8d89 03be 0047 9dbb 85ca 8bbd 704f 00be
00000330: c323 33be 8316 b83d 7832 063e de6c c43b
00000340: c08a 62bd 77bb c23d be6b b13d fcd1 61be
00000350: 4649 e3bd 400b 363e 7519 c43d 4fc4 edbd
00000360: c748 433c 5b34 1fbe 9317 18be 0b8f 8fbd
00000370: 20ba 093e 1ba2 31bd e557 4e3d d7f2 2ebe
00000380: 3a7b 713d 7219 3d3e fc7f 9dbc 086c 80bc
00000390: bc1f a7bc 3cb5 14be 7ee7 113d 10c0 9bbd
000003a0: d166 d9bd 68f2 0a3e e6ea 223e d601 31bd
000003b0: e808 2dbd 5a1d dc3c 4fb0 293d 3797 1fbe
000003c0: 1cc6 8abd 1924 793d ad55 a63d f711 5fbd
000003d0: b72f 243d 5bcf b13d d35a bebd cdf5 183e
000003e0: 101b df3d 7148 04be fc81 c5bd 4841 0f3e
000003f0: 55cd da3d 1828 26be 545f 5ebe d769 47bd

ln1.weight f4 [300]
1.1372095 1.2026509 1.0737091 1.1087611 1.1494653 1.1784893 1.2059149 1.1068157
1.1185644 1.4114355 1.2088207 1.1726744 1.145834 1.186495 1.125236 1.111721
1.1151949 1.1863668 1.0670253 1.1012392 1.1467409 1.0521686 1.1473042 1.5688771
1.131062 1.2356861 1.183073 1.1145087 1.1674558 1.1747415 1.149384 1.0688888
1.1488003 1.234018 1.1898584 1.245981 1.1131876 1.2451131 1.124372 1.1798707
1.0824387 1.124415 1.0906322 1.245444 1.0993713 1.1455687 1.1146164 1.2436869
1.1820368 1.2167699 1.2099897 1.1655341 1.1702304 1.1106521 1.1841521 1.2109566
1.2005043 1.1918074 1.1098853 1.1695358 1.2093532 1.1260014 1.139207 1.1431283
1.2161087 1.1234471 1.1176858 1.1479831 1.1654683 1.3342023 1.1031737 1.1099974
1.2337381 1.1042538 1.1409101 1.2761005 1.1383442 1.1553977 1.2355497 1.0929664
1.1997297 1.1877145 1.1596138 1.1906433 1.2206999 1.0529159 1.0804898 1.0671806
1.2380117 1.0844836 1.1613227 1.1021907 1.1585975 1.1216074 1.1007369 1.0759026
1.124717 1.2438465 1.1245977 1.1037743 1.1652476 1.087315 1.2294601 1.1958779
1.0853686 1.1330138 1.2629418 1.1830078 1.0944453 1.0630835 1.2077413 1.2012959
1.1440653 1.0914528 1.2437823 1.2146834 1.1219821 1.2637154 1.1354744 1.0883241
1.1054521 1.3434461 1.153582 1.1239928 1.2752963 1.1561824 1.0955337 1.1173506
1.1604569 1.1813606 1.1094108 1.2146201 1.0542748 1.3008478 1.2025661 1.1651506
1.1257663 1.149555 1.2188154 1.084473 1.1370754 1.085839 1.2061509 1.1516689
1.1319417 1.3337 1.1712012 1.2210145 1.174777 1.1717054 1.1960658 1.0669147
1.3753209 1.2636688 1.2491107 1.1118748 1.0736098 1.04649 1.0814323 1.1153103
1.1113986 1.1526363 1.1101263 1.0963153 1.1934694 1.165297 1.1024331 1.207339
1.1247666 1.3562765 1.1948465 1.2336208 1.0796565 1.0905632 1.1083062 1.3350592
1.1354026 1.1918321 1.1356562 1.1414762 1.1615134 1.1898501 1.1162717 1.1268302
1.0588663 1.174105 1.1252716 1.1134228 1.1422342 1.0971811 1.1653156 1.1242499
1.2757214 1.1374962 1.2519994 1.1353501 1.2386231 1.1206536 1.2276953 1.1910236
1.2704729 1.0762488 1.1411469 1.2740351 1.0544474 1.0823637 1.0239867 1.1413835
1.102108 1.1953388 1.1226193 1.2831007 1.100696 1.172467 1.1149281 1.0801154
1.166558 1.270172 1.2023674 1.2197133 1.1404783 1.016167 1.105146 1.2107965
1.0955138 1.1025995 1.1066239 1.1232117 1.1243271 1.1394614 1.1127285 1.1153643
1.1147945 1.0854532 1.2026913 1.0803331 1.1665254 1.1199462 1.1977184 1.0723892
1.3556437 1.261234 1.0923477 1.173973 1.0373105 1.082056 1.2216473 1.1497986
1.209076 1.3593336 1.0931882 1.1714754 1.1075462 1.2634279 1.2663538 1.0909323
00000000: 1590 913f 77f0 993f 4d6f 893f e2eb 8d3f
00000010: ae21 933f bdd8 963f 6b5b 9a3f 23ac 8d3f
00000020: 1e2d 8f3f eba9 b43f a3ba 9a3f 321a 963f
00000030: b0aa 923f 11df 973f bc07 903f e04c 8e3f
00000040: b5be 8e3f deda 973f 4994 883f 68f5 8c3f
00000050: 68c8 923f 76ad 863f ddda 923f f7d0 c83f
00000060: a4c6 903f f62a 9e3f f06e 973f 39a8 8e3f
00000070: 316f 953f ee5d 963f 041f 933f 59d1 883f
00000080: e30b 933f 4df4 9d3f 484d 983f 4e7c 9f3f
00000090: ee7c 8e3f de5f 9f3f 6ceb 8f3f 0106 973f
000000a0: 5a8d 8a3f d5ec 8f3f d699 8b3f b66a 9f3f
000000b0: 33b8 8c3f ffa1 923f c0ab 8e3f 2231 9f3f
000000c0: fb4c 973f 1ebf 9b3f f1e0 9a3f 3930 953f
000000d0: 1cca 953f d929 8e3f 4c92 973f a000 9b3f
000000e0: 20aa 993f 258d 983f b910 8e3f 59b3 953f
000000f0: 16cc 9a3f d020 903f 89d1 913f 0752 923f
00000100: 73a9 9b3f 1dcd 8f3f 5410 8f3f 1cf1 923f
00000110: 112e 953f 24c7 aa3f cc34 8d3f 6514 8e3f
00000120: 21eb 9d3f 3058 8d3f 5809 923f 4357 a33f
00000130: 43b5 913f 12e4 933f 7e26 9e3f 53e6 8b3f
00000140: be90 993f 0707 983f 3a6e 943f 0067 983f
00000150: e53f 9c3f f3c5 863f 7d4d 8a3f 6099 883f
00000160: 2b77 9e3f 5cd0 8a3f 39a6 943f 9614 8d3f
00000170: ec4c 943f d590 8f3f f2e4 8c3f 2db7 893f
00000180: baf6 8f3f 5d36 9f3f d1f2 8f3f 7a48 8d3f
00000190: d526 953f 232d 8b3f f35e 9d3f 8712 993f
000001a0: 5ced 8a3f 9906 913f 14a8 a13f cd6c 973f
000001b0: c916 8c3f 1f13 883f 4497 9a3f 10c4 993f
000001c0: bb70 923f bab4 8b3f 4234 9f3f bf7a 9b3f
000001d0: 1c9d 8f3f 6dc1 a13f 3a57 913f 344e 8b3f
000001e0: 747f 8d3f 0bf6 ab3f 93a8 933f ffde 8f3f
000001f0: e93c a33f c9fd 933f 733a 8c3f 5805 8f3f
00000200: da89 943f d336 973f 2c01 8e3f ac78 9b3f
00000210: 7af2 863f 2e82 a63f b0ed 993f a823 953f
00000220: 1c19 903f 9e24 933f 2502 9c3f 03d0 8a3f
00000230: b08b 913f c6fc 8a3f 2763 9a3f e369 933f
00000240: 77e3 903f aeb6 aa3f ece9 953f 344a 9c3f
00000250: 185f 963f 71fa 953f af18 993f a990 883f
00000260: 840a b03f e6bf a13f dce2 9f3f ea51 8e3f
00000270: 0c6c 893f 62f3 853f 606c 8a3f 7dc2 8e3f
00000280: 4f42 8e3f 9689 933f 9e18 8e3f 0f54 8c3f
00000290: 9bc3 983f 7428 953f 871c 8d3f 168a 9a3f
000002a0: 5af8 8f3f 789a ad3f bbf0 983f 49e7 9d3f
000002b0: 2f32 8a3f 9397 8b3f fadc 8d3f 38e3 aa3f
000002c0: df54 913f f48d 983f 2f5d 913f e41b 923f
000002d0: 79ac 943f 024d 983f fee1 8e3f f93b 903f
000002e0: ee88 873f 1349 963f e608 903f a384 8e3f
000002f0: bb34 923f 6e70 8c3f 1029 953f 6ce7 8f3f
00000300: d74a a33f 7a99 913f 8441 a03f 2753 913f
00000310: 348b 9e3f 9471 8f3f 1f25 9d3f 7673 983f
00000320: db9e a23f 85c2 893f 1a11 923f 9513 a33f
00000330: 22f8 863f e58a 8a3f ff11 833f db18 923f
00000340: e011 8d3f dd00 993f fdb1 8f3f a53c a43f
00000350: 9be3 8c3f 6613 963f f7b5 8e3f 3941 8a3f
00000360: c651 953f ff94 a23f 2de7 993f 911f 9c3f
00000370: 31fb 913f c311 823f 6d75 8d3f 61fb 9a3f
00000380: cc39 8c3f fb21 8d3f daa5 8d3f 67c5 8f3f
00000390: f3e9 8f3f dfd9 913f e36d 8e3f 42c4 8e3f
000003a0: 96b1 8e3f 21f0 8a3f caf1 993f 5b48 8a3f
000003b0: b450 953f 665a 8f3f d64e 993f 0d44 893f
000003c0: bc85 ad3f 1e70 a13f 0dd2 8b3f bf44 963f
000003d0: 97c6 843f d080 8a3f f05e 9c3f 9a2c 933f
000003e0: 01c3 9a3f a5fe ad3f 97ed 8b3f e8f2 953f
000003f0: 13c4 8d3f 01b8 a13f e217 a23f aba3 8b3f

ln1.bias f4 [300]
-0.019142773 -0.03988235 0.012225614 -0.01400063 0.028117238 -0.022875275 0.0014223638 -0.011445122
0.049959548 0.006624957 -0.034195438 0.0035927244 -0.05690889 -0.06538344 0.008446046 0.05687132
0.117615476 -0.04524156 -0.008815285 0.027462311 0.024866516 0.021804942 0.03932997 -0.14602762
0.013195181 -0.06312597 -0.07159445 0.051410444 -0.031285387 -0.06462398 0.062917665 -0.03454794
0.0077532926 -0.039412398 -0.061056517 -0.057493754 -0.022945095 0.014672868 0.040450282 -0.084421866
-0.064676866 -0.016163107 -0.013507852 -0.09065881 0.001777663 0.005712865 0.01788959 -0.03583438
-0.043092053 -0.05722031 -0.030080954 -0.06926593 -0.013322385 -0.011781063 -0.017400162 -0.02043552
-0.013432034 -0.038140614 0.008882873 -0.031263854 0.0019303313 -0.017736737 -0.03116125 0.01294703
-0.04964051 0.014106996 -0.05770641 -0.0011641949 -0.0074717356 -0.034085307 -0.06399715 0.07726358
0.0015669828 -0.06465005 -0.00093606976 -0.029450381 -0.060885575 0.027416736 -0.03020543 -0.002331151
-0.09860646 0.023155432 -0.07576433 0.00010410576 0.029842278 -0.023316683 -0.082686916 0.045402426
0.031284865 0.029094402 0.017622648 -0.023703633 0.010256926 0.0121553885 -0.00033586976 -0.035293117
0.0145778265 -0.00045208228 -0.028710226 -0.028144436 -0.0450012 0.0034000813 -0.08250353 -0.022362541
0.03086888 -0.035765655 -0.087087154 0.015362016 0.02271988 -0.019815248 0.025972858 -0.066476226
0.0387428 -0.004230977 -0.06822707 -0.0013688711 0.006864431 -0.11257658 0.013540145 0.035390526
-0.0021232946 -0.034025185 -0.051327642 -0.040084995 0.008978264 -0.06395865 -0.039549675 -0.047605608
-0.051756386 -0.010464203 0.006207594 -0.03174702 0.007549117 0.046555884 0.017721623 -0.05300286
-0.03781748 -0.049686406 -0.01397473 -0.020288842 -0.025718126 -0.036511183 -0.03846702 -0.074676655
-0.04878825 -0.07063061 -0.0008044775 -0.025170783 -0.029314801 -0.010281624 -0.089341134 0.034500048
-0.095030345 -0.11937133 -0.043858144 -0.037427578 0.029661242 -0.02564588 0.017889047 -0.064802125
-0.034616236 0.03331864 -0.030452315 0.02118839 -0.06863277 -0.05138916 0.02965554 0.02934687
0.038189404 0.03268408 -0.025447756 0.03789932 0.063085996 0.049132507 0.02692319 -0.040298842
0.069688745 -0.0071712434 0.0316964 -0.040303197 0.01725911 0.013728973 -0.003079619 -0.0005473938
-0.0024684607 0.01777598 0.07451823 -0.06496846 -0.040160347 0.0030826451 0.023998875 -0.03628344
-0.018326811 -0.056441166 -0.0030505 -0.012493758 -0.08500022 0.0045147394 0.0053146 -0.08588162
-0.067041785 0.021757405 -0.008142074 -0.0038009242 -0.016442895 -0.001626272 -0.032407634 0.010751248
0.011768609 0.0042556315 -0.035601825 -0.072340205 -0.02725205 -0.013713158 -0.014666603 -0.005417883
-0.039718572 -0.04619609 -0.0103822565 -0.053449832 -0.04236912 -0.03092685 -0.09666847 -0.03518262
0.057500374 -0.0015779175 0.018516837 0.048044607 -0.017124813 -0.09435102 -0.051793594 0.017028827
-0.05466713 -0.040509403 -0.12576135 -0.018803021 -0.01749032 0.00992538 -0.07704462 -0.05656507
0.06438443 0.0006434214 0.069625095 0.004509236 -0.07049457 -0.0023409813 -0.068456404 -0.08631221
-0.02476788 -0.06891501 0.004063461 0.083434425 -0.04236405 -0.048100334 -0.060501587 -0.050332796
00000000: 4ed1 9cbc ad5b 23bd f14d 483c e662 65bc
00000010: 1f56 e63c ee64 bbbc 9c6e ba3a 5284 3bbc
00000020: 62a2 4c3d 2b16 d93b 8410 0cbd ea73 6b3b
00000030: 4c19 69bd c1e7 85bd 4961 0a3c e7f1 683d
00000040: 62e0 f03d 374f 39bd fc6d 10bc a4f8 e03c
00000050: ddb4 cb3c 47a0 b23c 7618 213d 4488 15be
00000060: 9a30 583c 3048 81bd 1ca0 92bd c293 523d
00000070: 1b25 00bd 9459 84bd fada 803d 2482 0dbd
00000080: 550f fe3b e56e 21bd 6616 7abd 927e 6bbd
00000090: 5af7 bbbc 7866 703c 32af 253d 5fe5 acbd
000000a0: 4e75 84bd 7e68 84bc 0a50 5dbc 54ab b9bd
000000b0: 7900 e93a fc32 bb3b 308d 923c 12c7 12bd
000000c0: 4b81 30bd d85f 6abd 556c f6bc 4cdb 8dbd
000000d0: 2246 5abc 5c05 41bc c98a 8ebc 6468 a7bc
000000e0: 0912 5cbc 5539 1cbd 7889 113c 870e 00bd
000000f0: 2c03 fd3a a24c 91bc e145 ffbc c81f 543c
00000100: d953 4bbd 0821 673c 8e5d 6cbd e697 98ba
00000110: 76d5 f4bb 099d 0bbd f010 83bd 5e3c 9e3d
00000120: 3863 cd3a 3f67 84bd 9462 75ba ed41 f1bc
00000130: 2763 79bd 1099 e03c 6171 f7bc 39c6 18bb
00000140: 2ff2 c9bd 76b0 bd3c 542a 9bbd 5b53 da38
00000150: cb77 f43c a102 bfbc c257 a9bd e5f7 393d
00000160: 8f24 003d 6257 ee3c 5f5d 903c 1f2e c2bc
00000170: aa0c 283c 6527 473c ad17 b0b9 848f 10bd
00000180: d6d7 6e3c 7505 edb9 b531 ebbc 298f e6bc
00000190: 2e53 38bd e6d3 5e3b 9cf7 a8bd a631 b7bc
000001a0: bce0 fc3c 027f 12bd c05a b2bd f7b0 7b3c
000001b0: 0b1f ba3c 9653 a2bc 08c5 d43c b024 88bd
000001c0: c5b0 1e3d 02a4 8abb a2ba 8bbd b16b b3ba
000001d0: 05ef e03b 8d8e e6bd 7cd7 5d3c a8f5 103d
000001e0: f926 0bbb fe5d 0bbd ef3c 52bd 2a30 24bd
000001f0: 9219 133c c1fc 82bd d7fe 21bd 19fe 42bd
00000200: 81fe 53bd 0c72 2bbc 1369 cb3b 2a09 02bd
00000210: 955e f73b 62b1 3e3d f02c 913c 8719 59bd
00000220: 80e6 1abd f983 4bbd 44f6 64bc c934 a6bc
00000230: d2ae d2bc c08c 15bd 988f 1dbd 13f0 98bd
00000240: 30d6 47bd c8a6 90bd 92e3 52ba f532 cebc
00000250: 9825 f0bc 4274 28bc 7cf8 b6bd ec4f 0d3d
00000260: 459f c2bd f578 f4bd 99a4 33bd a94d 19bd
00000270: 22fc f23c 4f17 d2bc 0d8c 923c fab6 84bd
00000280: c1c9 0dbd 2079 083d 2277 f9bc 4693 ad3c
00000290: 568f 8cbd 717d 52bd 2df0 f23c d968 f03c
000002a0: 7e6c 1c3d bedf 053d d077 d0bc 513c 1b3d
000002b0: 3b33 813d 2b3f 493d 068e dc3c 6610 25bd
000002c0: f9b8 8e3d c0fc eabb 16d4 013d f714 25bd
000002d0: fa62 8d3c 7def 603c 6fd3 49bb fa7e 0fba
000002e0: e6c5 21bb ef9e 913c 049d 983d 2f0e 85bd
000002f0: 2d7f 24bd 3406 4a3b 4a99 c43c f29d 14bd
00000300: 1c22 96bc da2e 67bd e6ea 47bb 9fb2 4cbc
00000310: 9814 aebd 61f0 933b 1926 ae3b b4e2 afbd
00000320: 344d 89bd 963c b23c 5566 05bc ed18 79bb
00000330: 40b3 86bc a228 d5ba debd 04bd 0126 303c
00000340: 20d1 403c d372 8b3b 38d3 11bd 1a27 94bd
00000350: b13f dfbc 27ad 60bc 314c 70bc 7f88 b1bb
00000360: f1af 22bd 1c38 3dbd 571a 2abc 36ee 5abd
00000370: 3e8b 2dbd 4e5a fdbc 1efa c5bd a71b 10bd
00000380: 8385 6b3d 20d2 ceba 9fb0 973c 6cca 443d
00000390: 5649 8cbc 1c3b c1bd 8525 54bd 0a80 8b3c
000003a0: a4ea 5fbd 30ed 25bd 95c7 00be cb08 9abc
000003b0: dc47 8fbc 109e 223c 92c9 9dbd c6b0 67bd
000003c0: fcdb 833d 47ab 283a 9a97 8e3d 37c2 933b
000003d0: 755f 90bd 266b 19bb df32 8cbd 75c4 b0bd
000003e0: 02e6 cabc 5023 8dbd c826 853b abdf aa3d
000003f0: ed85 2dbd db04 45bd 83d0 77bd c329 4ebd

fc2.weight f4 [200, 300]
0.15963204 0.19293259 -0.052645747 -0.009313167 0.012579824 0.054297898 -0.029576816 0.042945463
-0.05634035 -0.4349032 0.13412644 -0.14080568 -0.011892091 0.10393276 0.062134273 0.0023506824
0.010641503 -0.2121355 0.019007102 0.096591726 -0.07348273 -0.01475622 0.08014526 0.2224945
0.031025436 0.15003692 -0.08932754 -0.06907503 -0.16324371 0.07863813 0.050951257 0.07159272
-0.0039144577 0.07832518 0.0043499535 -0.13183072 0.024786446 -0.04384307 0.015403045 -0.027226217
-0.058697533 0.041086283 -0.10280174 0.070372194 -0.009750928 0.032269187 0.076791376 -0.0819108
0.14931531 0.038177714 -0.060616788 0.054559287 -0.08482043 0.043620452 0.0653755 0.15729448
-0.09772482 -0.019802518 -0.010817028 -0.2565917 0.09959521 -0.012111775 -0.13740513 0.01142728
0.055630162 -0.021121897 -0.13825059 0.119332105 0.11222747 -0.25480583 -0.12175629 -0.080887504
-0.030024195 0.011987899 0.04424391 -0.084683046 0.11040619 0.14815012 -0.078614645 0.04219191
-0.08683491 0.073170215 0.039605774 0.14468732 -0.18681408 0.052682538 -0.106258176 0.05247479
-0.0769452 0.040818073 -0.1292972 0.026815347 0.10904766 0.028890109 0.039601427 -0.0965413
0.06802494 0.10389016 0.03712364 0.01581745 -0.014505536 0.06485222 0.18926539 -0.018916389
-0.16202761 0.11214178 -0.2327404 -0.0945075 0.07791941 -0.07859611 0.017307984 0.16913515
0.09258161 0.14999522 0.25372547 0.06962523 -0.09577246 -0.085649244 -0.06429705 -0.02488288
0.04729097 -0.039833494 -0.067446195 0.009854526 -0.041119877 0.063359156 0.046385996 0.036946665
-0.14995302 -0.06845525 0.06519009 0.10248813 0.020230092 -0.31140053 0.09844209 -0.06888777
0.026270434 0.07291144 0.1566569 -0.026866192 0.026253585 -0.014862576 0.05472245 0.121125415
0.04805705 -0.015443667 0.022448136 0.15479921 0.08195471 -0.023091871 0.022980627 -0.011532674
0.28548428 -0.044520773 -0.062342614 0.091900155 0.06174003 0.04116888 -0.048382696 -0.08530641
-0.0044137086 0.15135221 -0.12087532 0.07323926 0.12133692 0.154553 -0.027476193 -0.052740805
-0.025283448 -0.327552 0.041286703 -0.011965365 -0.011033636 0.099585734 -0.021336187 0.0920364
0.14270557 0.029114023 0.012474958 0.0959753 -0.0015800771 0.0010308395 0.16731167 -0.19695848
-0.10058624 0.012520395 -0.009389873 -0.10391298 0.10273329 0.07693746 -0.0006048244 -0.015590603
-0.36963788 -0.062195037 -0.055702265 0.10594349 -0.117544375 0.03521816 -0.2310783 -0.090014815
0.107370436 -0.06670337 -0.14051552 -0.063167825 -0.060980882 0.09167393 -0.026649999 0.09686251
-0.0026798116 0.11697598 0.15398219 -0.17525128 0.04753932 0.0937293 -0.08202029 0.15593264
-0.01592905 -0.0795549 0.16240662 0.037301473 -0.1152781 0.050879136 -0.061081696 0.22358267
-0.008523048 -0.034697574 0.007409044 0.12880956 -0.13762856 -0.029693905 -0.13169138 -0.032931633
0.05350582 -0.119539864 -0.024585376 0.083412915 -0.009555422 -0.064911306 -0.03161127 -0.055020545
-0.24589527 -0.018874452 -0.034549255 -0.040849973 -0.007080258 -0.07002584 -0.005398178 -0.046790224
-0.04702985 -0.29737148 0.02688873 0.042648457 -0.03780851 0.19571386 -0.06722479 -0.030524483
00000000: 9576 233e 1f90 453e 11a3 57bd 4196 18bc
00000010: 9b1b 4e3c 7967 5e3d 144b f2bc 95e7 2f3d
00000020: 24c5 66bd a2ab debe 7158 093e 5d2f 10be
00000030: 0bd7 42bc b3da d43d 8280 7e3d e80d 1a3b
00000040: b359 2e3c 0c3a 59be c8b4 9b3c e2d1 c53d
00000050: 1d7e 96bd 13c4 71bc 3323 a43d 99d5 633e
00000060: 0e29 fe3c 47a3 193e 5bf1 b6bd 3677 8dbd
00000070: 5c29 27be 070d a13d 44b2 503d 349f 923d
00000080: da44 80bb f468 a03d 0e8a 8e3b a2fe 06be
00000090: f20c cb3c ca94 33bd 0e5d 7c3c 8409 dfbc
000000a0: d36c 70bd 174a 283d b889 d2bd 4c1f 903d
000000b0: 5bc2 1fbc b22c 043d cc44 9d3d d9c0 a7bd
000000c0: 1de6 183e 3c60 1c3d 4f49 78bd 8f79 5f3d
000000d0: 55b6 adbd 5cab 323d 97e3 853d ce11 213e
000000e0: f323 c8bd e438 a2bc e739 31bc fd5f 83be
000000f0: 93f8 cb3d 7770 46bc eeb3 0cbe 7c39 3b3c
00000100: 74dc 633d d407 adbc 9091 0dbe 6464 f43d
00000110: 84d7 e53d e975 82be 5d5b f9bd 59a8 a5bd
00000120: 4df5 f5bc e568 443c 1a39 353d 4e6e adbd
00000130: a41c e23d aab4 173e b700 a1bd 6dd1 2c3d
00000140: 80d6 b1bd 44da 953d aa39 223d ea28 143e
00000150: 314c 3fbe a5c9 573d e39d d9bd ceef 563d
00000160: 7295 9dbd da30 273d 7c66 04be dcab db3c
00000170: 6154 df3d f3aa ec3c 1b35 223d 72b7 c5bd
00000180: a950 8b3d 5dc4 d43d f50e 183d 9993 813c
00000190: a1a8 6dbc 3ed1 843d c9ce 413e 8bf6 9abc
000001a0: 91ea 25be 97aa e53d 8053 6ebe 268d c1bd
000001b0: 3694 9f3d fff6 a0bd 79c9 8d3c c431 2d3e
000001c0: 6d9b bd3d 5998 193e 4ee8 813e ac97 8e3d
000001d0: 5a24 c4bd df68 afbd 2cae 83bd 2ed7 cbbc
000001e0: 2db4 413d 7228 23bd 3b21 8abd e174 213c
000001f0: 516d 28bd 72c2 813d 3eff 3d3d 6355 173d
00000200: 498d 19be 4432 8cbd 6282 853d 4ce5 d13d
00000210: 94b9 a53c e46f 9fbe 029c c93d 0815 8dbd
00000220: 1835 d73c 9852 953d ab6a 203e 7d16 dcbc
00000230: c211 d73c 2982 73bc a624 603d 9a10 f83d
00000240: 78d7 443d 6f07 7dbc 27e5 b73c af83 1e3e
00000250: dfd7 a73d 2a2b bdbc de41 bc3c 8af3 3cbc
00000260: ff2a 923e 6a5b 36bd f85a 7fbd 2636 bc3d
00000270: 1de3 7c3d b3a0 283d ef2c 46bd 21b5 aebd
00000280: dfa0 90bb 13fc 1a3e 7b8d f7bd 77fe 953d
00000290: 7e7f f83d 2443 1e3e c115 e1bc be06 58bd
000002a0: 3c1f cfbc e5b4 a7be 3f1c 293d 610a 44bc
000002b0: 6cc6 34bc 9bf3 cb3d 3ac9 aebc 957d bc3d
000002c0: 6921 123e 8880 ee3c c463 4c3c b38e c43d
000002d0: 971a cfba 3c1d 873a c053 2b3e 7caf 49be
000002e0: 2900 cebd 5822 4d3c fbd7 19bc 54d0 d4bd
000002f0: d565 d23d 6391 9d3d 148d 1eba bb6f 7fbc
00000300: 2d41 bdbe 39c0 7ebd 0f28 64bd e7f8 d83d
00000310: 1bbb f0bd eb40 103d ca9f 6cbe b059 b8bd
00000320: 08e5 db3d c79b 88bd 4de3 0fbe 225e 81bd
00000330: 17c7 79bd 8bbf bb3d 1951 dabc da5f c63d
00000340: c79f 2fbb 1a91 ef3d 82ad 1d3e 1275 33be
00000350: 97b8 423d 26f5 bf3d 41fa a7bd ceac 1f3e
00000360: a47d 82bc aeed a2bd ec4d 263e 6ec9 183d
00000370: ed16 ecbd a466 503d cd30 7abd dbf2 643e
00000380: 41a4 0bbc 0b1f 0ebd 91c7 f23b a7e6 033e
00000390: 80ee 0cbe a240 f3bc 1bda 06be 52e3 06bd
000003a0: eb28 5b3d 51d1 f4bd 4567 c9bc 64d4 aa3d
000003b0: 588e 1cbc 38f0 84bd d27a 01bd 395d 61bd
000003c0: f8cb 7bbe 989e 9abc 8583 0dbd 4d52 27bd
000003d0: 8201 e8bb b569 8fbd 33e3 b0bb 1ba7 3fbd
000003e0: 5fa2 40bd 1341 98be c145 dc3c 26b0 2e3d
000003f0: 19dd 1abd 3769 483e 27ad 89bd 7b0e fabc

fc2.bias f4 [200]
0.007303634 -0.027275242 0.06402514 -0.020738497 -0.0074323975 -0.016259616 0.0121925725 -0.015155764
0.006344394 0.032504488 0.026233278 -0.023069313 -0.04688256 -0.042041276 -0.024685036 0.0267129
-0.016716635 0.06587451 -0.015290948 0.017101094 -0.041361913 -0.034899056 0.027538886 0.005949915
0.057982348 0.041160103 0.009837105 0.022927541 -0.00063383486 -0.057884797 0.0094887195 -0.046108793
-0.029352749 -0.02201258 0.051526863 0.008591224 0.01601062 0.06975172 -0.040464625 -0.0319033
-0.045928463 -0.016873809 0.029044995 0.063269906 -0.013874782 0.0054171104 0.07174223 -0.014416188
-0.032744538 -0.030241106 -0.025106646 0.028468154 -0.040541932 -0.026342977 -0.016601145 -0.015887368
0.008723345 0.03396201 -0.030974304 0.00076871924 -0.02243494 -0.025506303 0.022352513 0.014122673
-0.060649473 0.009890345 0.03557957 0.006306928 -0.04528329 -0.008691864 -0.02408976 0.0071365545
0.020081706 -0.0514694 0.015742907 0.01905925 0.03503648 -0.014938493 -0.00456693 -0.010042036
-0.053539444 -0.007926494 -0.0044051516 0.00744888 0.027478363 0.0146264825 -0.01605253 0.027425343
-0.02644955 0.04361561 0.04362736 -0.018198071 0.041009888 -0.035734754 -0.04241849 -0.05798432
-0.02861799 -0.0013862835 0.019414421 -0.026969653 -0.003087525 -0.0011465308 0.0638532 -0.049642723
0.035036143 -0.012197547 0.020793587 -0.0050604492 -0.05907446 0.017372292 0.008389122 -0.05618124
0.051207423 -0.046394043 0.06376169 0.06953888 -0.011317617 0.02138015 0.016750483 -0.07193979
-0.010948048 0.0053589437 -0.0084662195 -0.045067728 -0.04030039 -0.05808789 -0.04966905 0.033384304
0.057985727 -0.01255678 -0.043846637 0.0077171586 0.008382326 0.039871145 -0.058012787 -0.031319458
0.050529342 0.04925763 -0.03797558 -0.005264376 0.015526564 0.06269565 -0.06499202 0.036661413
0.010014166 -0.021819625 -0.025999587 0.039144665 0.0009635836 -0.028578809 -0.017578747 0.06344802
0.057527356 -0.025532983 -0.00403071 0.06926673 0.003531566 0.011055581 0.020408543 0.034280583
0.016779939 -0.045487925 -0.024726529 -0.035920624 0.040308896 0.04022173 0.05072931 -0.05222012
0.030267868 -0.061480433 0.020446742 0.040392984 0.020837152 0.053118274 -0.016405165 0.011596075
0.026969088 0.04949039 0.04783175 -0.028694814 -0.01725904 -0.022604326 -0.026462404 0.009956752
-0.031031134 0.01949647 0.07097911 -0.041713662 -0.063885175 0.012990082 0.008305927 0.06066464
-0.0007702255 0.043340717 -0.074263014 -0.0573873 0.011669672 0.006209371 -0.044675983 -0.0021499905
00000000: 5353 ef3b 5470 dfbc 9d1f 833d c8e3 a9bc
00000010: 788b f3bb e332 85bc 5bc3 473c e24f 78bc
00000020: a2e4 cf3b 6d23 053d 2ce7 d63c dbfb bcbc
00000030: ed07 40bd 7933 2cbd 4638 cabc 03d5 da3c
00000040: 53f1 88bc 37e9 863d e286 7abc 9817 8c3c
00000050: 1c6b 29bd 50f2 0ebd 3b99 e13c 81f7 c23b
00000060: e67e 6d3d 7f97 283d cf2b 213c 8ad2 bb3c
00000070: f027 26ba 9c18 6dbd 9376 1b3c 93dc 3cbd
00000080: 2d75 f0bc ba53 b4bc d50d 533d 35c2 0c3c
00000090: b428 833c fdd9 8e3d 3cbe 25bd 09ad 02bd
000000a0: 7c1f 3cbd f13a 8abc c5ef ed3c a793 813d
000000b0: 0e53 63bc 0482 b13b 97ed 923d e031 6cbc
000000c0: 231f 06bd 32bc f7bc 74ac cdbc 0c36 e93c
000000d0: 4c0f 26bd 3acd d7bc 20ff 87bc 3a26 82bc
000000e0: 5cec 0e3c c01b 0b3d d3bd fdbc e083 493a
000000f0: 7bc9 b7bc 98f2 d0bc 9e1c b73c c962 673c
00000100: 956b 78bd 1d0b 223c e2bb 113d 59aa ce3b
00000110: f97a 39bd 5268 0ebc e357 c5bc c2d9 e93b
00000120: 6482 a43c 94d1 52bd 45f7 803c 2522 9c3c
00000130: 6982 0f3d 95c0 74bc 2fa6 95bb 5a87 24bc
00000140: 2d4c 5bbd 20de 01bc 1759 90bb bc15 f43b
00000150: 4e1a e13c eaa3 6f3c 9880 83bc 1dab e03c
00000160: baac d8bc 48a6 323d 9ab2 323d 1f14 95bc
00000170: fcf9 273d 9b5e 12bd 03bf 2dbd f780 6dbd
00000180: 4670 eabc f5b3 b5ba fe0a 9f3c 76ef dcbc
00000190: 1358 4abb 3147 96ba 77c5 823d 2b56 4bbd
000001a0: 0f82 0f3d 38d8 47bc 5057 aa3c 20d2 a5bb
000001b0: 10f8 71bd 5650 8e3c 8772 093c 4d1e 66bd
000001c0: e0be 513d ae07 3ebd 7d95 823d 666a 8e3d
000001d0: 876d 39bc 6d25 af3c 4f38 893c 2b55 93bd
000001e0: 715f 33bc 149a af3b e6b5 0abc f098 38bd
000001f0: 0612 25bd 91ed 6dbd c671 4bbd fbbd 083d
00000200: 7182 6d3d f4ba 4dbc 8898 33bd 38e0 fc3b
00000210: 0656 093c ed4f 233d d19e 6dbd d548 00bd
00000220: dbf7 4e3d 5ec2 493d 488c 1bbd c980 acbb
00000230: 2163 7e3c 9466 803d 891a 85bd 472a 163d
00000240: 7512 243c 12bf b2bc 16fd d4bc 2856 203d
00000250: 0099 7c3a 1b1e eabc 4e01 90bc 09f1 813d
00000260: cea1 6b3d 8c2a d1bc 0c14 84bb b7db 8d3d
00000270: d871 673b 7822 353c d12f a73c cc69 0c3d
00000280: 1576 893c 8c51 3abd 4a8f cabc 8121 13bd
00000290: f11a 253d 8abf 243d 89c9 4f3d c4e4 55bd
000002a0: 52f4 f73c e8d2 7bbd ed7f a73c 1d73 253d
000002b0: adb2 aa3c 8c92 593d 2064 86bc 77fd 3d3c
000002c0: 47ee dc3c 6fb6 4a3d 3aeb 433d 6311 ebbc
000002d0: d562 8dbc b52c b9bc afc7 d8bc a521 233c
000002e0: 0135 febc 10b7 9f3c 7f5d 913d f2db 2abd
000002f0: 3bd6 82bd 5ad4 543c 9515 083c 7c7b 783d
00000300: f5e8 49ba 0986 313d 3517 98bd f20e 6bbd
00000310: 2732 3f3c fb77 cb3b 2afe 36bd dbe6 0cbb

fc3.weight f4 [4, 200]
-0.09422818 0.10857096 0.001431955 0.12500909 0.07571877 0.045151804 0.083212465 -0.40236953
0.053075105 0.02346749 -0.013637691 -0.057964657 0.20793875 -0.030010575 0.067765616 -0.2523954
-0.03158548 0.036713053 -0.008947179 0.13101871 -0.073785245 0.02087164 0.15152939 -0.2547327
-0.22135088 0.067738466 0.14133148 -0.024468368 0.08554127 0.30582708 -0.06275248 -0.16503608
0.13732442 -0.023613255 0.019346915 0.05850978 0.053457256 -0.08048363 0.02545512 -0.30127499
0.25896025 -0.049061272 -0.095499255 0.10040006 0.04655498 -0.01843 -0.02792892 0.16534072
-0.0094808275 -0.030354656 0.053845737 -0.01118315 0.07256069 -0.08066221 0.014149041 -0.028423326
-0.009070347 0.123869054 0.092953056 0.012123215 -0.0513529 -0.04247952 0.11421517 -0.09943545
-0.36525008 0.069381826 0.04061531 -0.0069377227 0.051955473 0.17320931 0.13658318 -0.01540701
0.22913782 0.1916659 0.0990327 -0.012663163 0.21699111 -0.22374652 0.0072778 -0.22981635
0.055187415 0.16525601 0.073301524 0.2774736 -0.12855244 0.2637228 0.13127583 -0.040528838
0.053802304 0.17546019 0.039924897 -0.12770666 0.07183617 -0.012044755 -0.05501858 -0.018267686
0.05516331 -0.097095 0.031450212 0.19148669 -0.22352393 -0.07550176 0.14420101 0.09078006
-0.053182673 -0.068473086 -0.0970475 -0.07797387 -0.013237794 -0.29049245 -0.003969306 -0.16448136
0.0786098 -0.12577158 0.03572765 -0.059114028 0.18978713 -0.07689796 0.19924198 -0.27111444
0.43337527 0.0025693453 0.03159874 -0.07085995 0.0817778 -0.21441424 0.05167938 -0.09708664
-0.20989084 -0.020065233 0.3471693 -0.033235114 -0.071932256 0.30174136 -0.18071802 0.049634755
0.067999385 -0.050423384 0.036525667 0.03258816 0.12728135 0.025378855 0.071148716 0.17233549
-0.28140193 0.12641396 -0.43979156 -0.5114784 0.31888905 0.02810153 -0.10398846 -0.05047254
-0.062074043 -0.0737652 -0.007886947 0.13721186 -0.17538574 0.03116482 -0.030356845 0.026145464
-0.011778057 -0.05338075 0.160136 0.022251884 -0.22487006 0.014806525 0.15223539 -0.21752171
-0.14732425 -0.072064236 -0.12299278 0.08109795 0.123888426 -0.20773208 0.106556594 0.0732942
0.023942018 -0.018852128 -0.27801147 -0.046798218 0.19375734 0.04346723 -0.0070615676 -0.1603423
0.22378007 -0.11787013 -0.047229204 -0.07871536 0.048978508 -0.19723864 0.04943608 0.29630074
-0.019820172 0.038062137 -0.16419472 -0.15832852 0.031333033 -0.10992859 -0.21264198 0.043759134
0.1476422 0.41024172 -0.014872843 0.078054905 0.098622434 0.01878773 0.39454174 0.4034841
-0.108325996 0.027043788 0.0079395 -0.04877172 0.08255723 -0.26860768 -0.058474418 0.39798534
0.09689534 -0.13928407 -0.03438878 0.018360393 -0.081806734 -0.032644637 0.02372083 -0.19536632
0.086484514 -0.032649476 0.10711151 0.09293774 0.1942585 -0.13583566 0.013743226 -0.24041569
0.19624703 -0.2347193 -0.028234052 0.040682655 0.09999456 0.004457179 -0.0131093 -0.1570992
0.24446036 -0.09846009 0.008054695 -0.0023997596 -0.0009382567 -0.03135734 -0.054635856 -0.105183214
0.19237521 0.31666905 0.027695099 0.14052705 0.23801441 0.031552818 -0.000366549 -0.026267238
00000000: b4fa c0bd 745a de3d 70b0 bb3a 6202 003e
00000010: 7112 9b3d 19f1 383d 4c6b aa3d 6103 cebe
00000020: 4865 593d e53e c03c 9f70 5fbc 596c 6dbd
00000030: e5ed 543e bdd8 f5bc b3c8 8a3d f839 81be
00000040: c75f 01bd 6d60 163d 3097 12bc c529 063e
00000050: b81c 97bd 00fb aa3c 852a 1b3e 536c 82be
00000060: cea9 62be 77ba 8a3d 33b9 103e e371 c8bc
00000070: 4330 af3d 5e95 9c3e 5f84 80bd 38ff 28be
00000080: c69e 0c3e 9670 c1bc 6c7d 9e3c f3a7 6f3d
00000090: fff5 5a3d 9ad4 a4bd 4187 d03c b740 9abe
000000a0: 7096 843e 79f4 48bd 1d95 c3bd 8c9e cd3d
000000b0: 6fb0 3e3d 83fa 96bc 31cb e4bc 144f 293e
000000c0: 7955 1bbc 54aa f8bc 598d 5c3d 8839 37bc
000000d0: b39a 943d 3b32 a5bd 61d1 673c 09d8 e8bc
000000e0: cb9b 14bc 0faf fd3d 2c5e be3d 73a0 463c
000000f0: 6b57 52bd 01ff 2dbd a5e9 e93d d0a4 cbbd
00000100: 0f02 bbbe 0f18 8e3d 3d5c 263d d655 e3bb
00000110: 43cf 543d c85d 313e 76dc 0b3e af6d 7cbc
00000120: 1ba3 6a3e 1144 443e a8d1 ca3d 2879 4fbc
00000130: eb32 5e3e cf1d 65be 9c7a ee3b fa54 6bbe
00000140: 330c 623d df38 293e 1c1f 963d 0511 8e3e
00000150: 40a3 03be ad06 873e 2c6d 063e 9101 26bd
00000160: ce5f 5c3d d6ab 333e 4a88 233d 89c5 02be
00000170: d81e 933d 5d57 45bc 2a5b 61bd 1da6 95bc
00000180: ecf2 613d bed9 c6bd f0d1 003d 1615 443e
00000190: 75e3 64be aba0 9abd 6ea9 133e e5ea b93d
000001a0: 13d6 59bd 9e3b 8cbd d7c0 c6bd c4b0 9fbd
000001b0: 55e3 58bc 6dbb 94be f410 82bb cd6d 28be
000001c0: 2dfe a03d 44ca 00be 2857 123d 8d21 72bd
000001d0: 8f57 423e ad7c 9dbd 1706 4c3e 83cf 8abe
000001e0: 5de3 dd3e 7662 283b ae6d 013d 051f 91bd
000001f0: 1f7b a73d 688f 5bbe c2ad 533d 5cd5 c6bd
00000200: a0ed 56be d85f a4bc 2dc0 b13e 8b21 08bd
00000210: 3851 93bd d87d 9a3e 250e 39be d04d 4b3d
00000220: 4343 8b3d c088 4ebd f09b 153d 2a7b 053d
00000230: 0b56 023e 51e7 cf3c 6bb6 913d b778 303e
00000240: ea13 90be a972 013e 5c2c e1be 40f0 02bf
00000250: 6d45 a33e 2e35 e63c e7f7 d4bd 4bbc 4ebd
00000260: 5a41 7ebd 3612 97bd 4138 01bc 4481 0c3e
00000270: 5298 33be 5d4d ff3c ebae f8bc 032f d63c
00000280: c0f8 40bc c6a5 5abd b1fa 233e 9549 b63c
00000290: 5644 66be 1197 723c 98e3 1b3e 03be 5ebe
000002a0: 2bdc 16be 6a96 93bd a3e3 fbbd af16 a63d
000002b0: 37b9 fd3d b8b7 54be 583a da3d 451b 963d
000002c0: 0d22 c43c c76f 9abc 8557 8ebe 7daf 3fbd
000002d0: 5368 463e b20a 323d b964 e7bb c630 24be
000002e0: 9a26 653e e565 f1bd 6973 41bd 8535 a1bd
000002f0: b09d 483d edf8 49be 7d7d 4a3d bbb4 973e
00000300: ea5d a2bc 0be7 1b3d a922 28be df20 22be
00000310: 1157 003d 3e22 e1bd d2be 59be c73c 333d
00000320: 842f 173e 340b d23e 3aad 73bc 40db 9f3d
00000330: 8ffa c93d bae8 993c 6001 ca3e 7895 ce3e
00000340: 05da ddbd ef8a dd3c ad14 023c dbc4 47bd
00000350: c413 a93d f286 89be df82 6fbd bcc4 cb3e
00000360: 1071 c63d 7ca0 0ebe 40db 0cbd 8968 963c
00000370: 4a8a a7bd 62b6 05bd 3052 c23c 1c0e 48be
00000380: cb1e b13d 75bb 05bd 485d db3d 2456 be3d
00000390: b3eb 463e 8118 0bbe 452b 613c 882f 76be
000003a0: fbf4 483e 425a 70be 194b e7bc dba2 263d
000003b0: f3c9 cc3d 870d 923b 64c8 56bc 9dde 20be
000003c0: d153 7a3e 72a5 c9bd d7f7 033c 4945 1dbb
000003d0: 57f5 75ba 8e70 00bd d9c9 5fbd 4c6a d7bd
000003e0: 02fe 443e 7222 a23e d5e0 e23c 53e6 0f3e
000003f0: 0dba 733e 873d 013d 602d c0b9 642e d7bc

fc3.bias f4 [4]
-0.042175297 -0.019173484 0.0003237431 -0.015432122
00000000: 01c0 2cbd b611 9dbc 10bc a939 03d7 7cbc
