P2_Continuous_Policy/critic_local.pth (torch, 290561 bytes, 7 tensors)

fcs1.weight f4 [300, 33]
00000000: a8dc 22be 33e7 7a3e 9e6c 2bbe f532 93bd
00000010: 2f50 843c c4df 8f3d 8b89 f73d c8b4 e23e
00000020: 0133 2fbb 5943 3b3b 56ea 5dbc a1a9 8f3e
00000030: 9aa2 45be 15c9 933e 9c66 273e 8ae6 3bbe
00000040: 45fb a43e 9d96 1dbe 4466 b73d 4b32 8b3e
00000050: f901 4f3d 5789 15be de65 19be e0df 853d
00000060: f740 e5bd b26b 1ebc da26 aebc 7c01 33be
00000070: 0aed b33d 11d4 c6bc 78e6 403e 6a94 6d3c
00000080: c4df 9f3f d729 ddbe cbd3 8dbe adc6 e8bb
00000090: 24de 06bb 7879 203e e6a1 0a3e 3bf7 3b3e
000000a0: 5d83 163e c481 e5be 3fc7 063e d19c 053e
000000b0: aa25 733e 088b 0a3e 4f8f dd3e 8d9e c03e
000000c0: b3b5 8b3e 35e2 6cbe 5920 8a3d 18bd 053e
000000d0: 5581 883d d3ab 77bd d0d8 663e b11d 23bd
000000e0: b256 8c3d 43d9 e83a 7bee d63d fea3 87be
000000f0: 85d3 f9be 330e bc3d 9180 e8bc 6fa8 e53e
00000100: 900e 0fbd a289 4fbf b260 12be f7e7 da3e
00000110: 59df ed3d dd51 2e3d 331d 4e3e ee41 f0be
00000120: ca80 063f 26ac 20be 8368 313e 7804 723d
00000130: 1a2e 0ebd abb5 943e 83ce a33d 6e32 d33c
00000140: 8874 593e 89d9 403e 5f8b 7ebe e88d d8bd
00000150: e984 b23e 6b85 593d 28a0 2e3d a93c 253d
00000160: c708 dc3c 5471 e73d f931 c03e 4a84 7a3e
00000170: c08e 42bd c0e8 933d 16cc 82bc 39f4 f33c
00000180: 67e2 12be f822 3dbd 5518 cdbe 9873 823e
00000190: 8e11 5fbe e9f7 09be 508f e539 dc7e b5bb
000001a0: ccf0 b23e 1972 d9be daac 9e3e 59ad 61bd
000001b0: 1b31 1cbf 3925 e9be 15a7 12be ef60 06bf
000001c0: f016 d63d 1104 11be 3744 013e 72c0 0fbe
000001d0: 6831 82bd 713b 53be a8e0 84bd c903 37be
000001e0: a07c f13c a0d6 463b 5878 fe3c fe00 cdbd
000001f0: 8b25 283e 368c 88be 6c14 cbbe eecb 5d3d
00000200: ed1f 613d fcd0 e83e a446 033d 1e2c 793f
00000210: 29d4 033e 083b 08bf b873 203f 8375 b53c
00000220: d013 12bc 801d 9e3e d999 f43d 2abd 713e
00000230: e1a2 8d3d 03cc f13d 0439 523e 651e 95be
00000240: 39b4 623e c0c5 39be f8fc 28be 7bda 6fbd
00000250: bd87 32bd fb1f babc f542 49bd 075a 93bd
00000260: 7fc0 95bd 3bf0 95bd 7740 983b 4012 b2be
00000270: ee67 b53d 8ae2 b03c 6952 14bd 36fb cebe
00000280: eb73 403d f5bc fdbc ef46 e63e dd9d ae3b
00000290: 8833 cd3e f8e2 babe 7bf3 6cbe 3c5e 093e
000002a0: 01c5 ac3d 28ca c6be 7199 a13c e482 183d
000002b0: 2a64 13be ea4f 10be 8c8b 64be 76ab abbe
000002c0: fff6 11bd 7abf d13e e61f eabd ba46 283d
000002d0: 3d45 a3bd 3d55 123e 73b8 2abd 9443 323e
000002e0: 5cc3 6ebc bbde 30bd fb26 0d3c d996 123e
000002f0: 25a6 373e 7f9c 2c3d e62b f2bd ef15 7a3e
00000300: a58d c4be c418 0fbd c0b9 81bc 5bd7 c93e
00000310: 1a0b ef3c 4db6 113f 8ce4 99bd e5d9 963e
00000320: ed16 3bbe 8595 e4be 2af7 bfbe 58e4 1abf
00000330: 34a6 7a3c b321 d1bd 3408 e0be f7d1 5c3e
00000340: fecd 0d3e b825 cabd bb55 c33e fe38 c73b
00000350: 09bf d13e 1597 8e3c caea c13d 7921 58be
00000360: b319 1fbd dd5b c0bd a1d0 823e ca86 913e
00000370: 79cd 43be d75b 72be a1ce 36bd 821d e8bc
00000380: 05b5 ba3e 56ec 97be 8818 fbbc 802f a0bc
00000390: acf6 813e 4382 263d d836 87bf 62b1 adbc
000003a0: 75a5 c13d e5be 24bf ace8 f03d 8433 bc3d
000003b0: b773 c3bd 0092 913e 6971 8dbe a080 033f
000003c0: 39d6 8abc ff44 7bbe 9e13 d63c 1ff3 d4bd
000003d0: 8c22 9b3d 20a5 a73c ce8f 993c c110 58be
000003e0: 4322 17be 8571 a0be 80f5 3bbe 191e 263e
000003f0: 7c0a 98bd c25f 413e c1c3 0c3e 35a1 5a3d
-0.15904486 0.24502258 -0.16740653 -0.07187454 0.016151516 0.07025102 0.12086781 0.4427855
-0.0026733282 0.0028574078 -0.01354464 0.28059104 -0.19300309 0.2886435 0.16347736 -0.18349662
0.32222953 -0.15389486 0.089550525 0.27186808 0.05053899 -0.14603172 -0.14980265 0.065368414
-0.11194032 -0.009669231 -0.02125876 -0.17481035 0.08785446 -0.024271043 0.18837917 0.014500717
1.2490163 -0.43195984 -0.27700648 -0.007103762 -0.0020579183 0.15671337 0.13538322 0.1835603
0.14698549 -0.44825566 0.13161944 0.13048102 0.23744836 0.13529599 0.43273398 0.37620965
0.27287063 -0.23133166 0.06744451 0.13060415 0.06665293 -0.0604666 0.22543645 -0.039823238
0.06852473 0.0017764944 0.10494705 -0.26492304 -0.4879419 0.09182396 -0.028381618 0.44855067
-0.034925997 -0.81069386 -0.14294699 0.427551 0.11614866 0.04255854 0.20128326 -0.469253
0.52540267 -0.1569067 0.17325024 0.059086293 -0.034711935 0.29044852 0.07998373 0.025780883
0.2123586 0.18832983 -0.24857853 -0.105739415 0.34867027 0.053105753 0.042633206 0.040341053
0.026859654 0.113009125 0.37538126 0.24464527 -0.04749942 0.07222128 -0.015966456 0.02977954
-0.14344178 -0.046175927 -0.40057626 0.25478816 -0.2178404 -0.13473476 0.0004378506 -0.0055388045
0.34949338 -0.42469862 0.3099125 -0.055096958 -0.6101243 -0.4553621 -0.14321549 -0.5249166
0.10453594 -0.14161707 0.12623678 -0.14038256 -0.0635708 -0.20628144 -0.06488162 -0.17872538
0.029478371 0.0030340329 0.031063244 -0.10009955 0.16420572 -0.26669472 -0.39664018 0.05414956
0.054962087 0.45471942 0.03204979 0.9733294 0.12873901 -0.53215075 0.6267657 0.02215076
-0.0089158565 0.30881882 0.119434066 0.23607317 0.06915832 0.1180649 0.20529562 -0.29124752
0.22139062 -0.18141842 -0.1650275 -0.05855797 -0.04358648 -0.022720328 -0.04913612 -0.07194906
-0.07312106 -0.07321211 0.0046463567 -0.3477955 0.08857714 0.021592397 -0.036211405 -0.40426034
0.046985548 -0.03097389 0.44975993 0.0053288774 0.40078378 -0.36501288 -0.23139755 0.13414854
0.08436013 -0.38826108 0.019726487 0.037234202 -0.14393678 -0.14092985 -0.22318858 -0.33529252
-0.035635944 0.40966398 -0.114318654 0.041083075 -0.079721905 0.14290328 -0.04167981 0.17408592
-0.0145729445 -0.043181162 0.008615251 0.14315356 0.17934473 0.042141434 -0.11824779 0.2442243
-0.38389316 -0.034935728 -0.015835643 0.39422116 0.029180098 0.56918794 -0.07514295 0.29463115
-0.18270464 -0.44645324 -0.3749326 -0.60504675 0.015298415 -0.10211506 -0.43756258 0.2156447
0.13848111 -0.098704755 0.38151345 0.006079792 0.4096606 0.017406026 0.094686106 -0.21106519
-0.038842868 -0.093925215 0.25549796 0.28423148 -0.1912135 -0.23667847 -0.04463065 -0.028334383
0.36466232 -0.29672498 -0.030651346 -0.0195539 0.25383508 0.04065157 -1.0563612 -0.021202747
0.094553865 -0.6435378 0.11763129 0.09189513 -0.09543555 0.28431702 -0.27625588 0.5136814
-0.016947852 -0.24538039 0.026132401 -0.10397934 0.07574949 0.02046448 0.01874533 -0.21100141
-0.14759164 -0.3133661 -0.1835537 0.16222419 -0.07423875 0.18884185 0.13746549 0.053376395

fcs1.bias f4 [300]
00000000: b68f 9a3d a141 b83e d7f5 10be 28b0 b83e
00000010: e8b4 be3e 9e6a 043f 6309 c93e ad9c bd3e
00000020: 0b77 49bd 495e 013f b0d4 ce3d ddd3 82bd
00000030: 367d d53e f2e3 aa3c 8449 153f 7c9c 8d3e
00000040: d185 523e ee93 933e 7c40 92bd 0a3a 77be
00000050: 38a3 69be 5473 3b3f 9233 8c3d 2016 2b3f
00000060: fd33 9c3e 44cc 0cbe 04bb 493e e55a d43e
00000070: 153f efbe ac32 1b3f 8c45 453e b0dd 9f3e
00000080: 27a6 3bbd 8477 0b3f 27da 95be 9b81 193f
00000090: 5b56 f33e fe6f 7e3e b5a0 963e ad77 8bbe
000000a0: 8c0f a03e 6d31 843e 917f b53e e45b 94bd
000000b0: 84a4 48bd f811 1a3f 7ac5 d3be e2c3 2f3e
000000c0: 0753 a3bb b70a 923e b104 2c3e 30f3 bb3e
000000d0: 6d57 87be 1045 f93d b8ee 29be 8567 18be
000000e0: 9184 dd3e d6aa b83e 946e e93e 7af8 a53e
000000f0: 7caf a03d 8734 fcbd 186c 903d 869f f83e
00000100: 3b7d 74be 0c2a 55be 4cd9 a03e 7f17 0f3e
00000110: fbcb 28bd f999 b4be bade 473e bf87 0c3e
00000120: d95d 2e3d 7449 f93d 9563 b73e a2bb 853d
00000130: cfc2 923e 2f5b 9ebe 31dd d93e 6cfa cebc
00000140: 3ec0 dc3e 3af7 6b3e 8715 d93d 58d2 d4be
00000150: 69c9 23be 2695 68be 99a2 f43d c60a 5a3e
00000160: 88ca 893e 4b77 fe3d 1f51 123f e16a ee3d
00000170: 5334 dbbe 14c9 243f 773b c1be 214b 183e
00000180: 8464 bdbe 2242 e63d 2a95 543e f44b 333e
00000190: b677 c4bb 8bf1 abbd e3ad 183f 357e 903e
000001a0: b59f e43e 2371 2b3e 5a5d a9be 6d03 a13d
000001b0: 48d6 8d3e 043f c03e 3ce9 563e 1005 d3be
000001c0: 9931 953e dd9c 5b3d 7baf 503e ee3d 5b3e
000001d0: 742c 903c f040 a23e 7e23 d03e e958 c43e
000001e0: 0d18 673e 1df4 003f 3e81 01bd c26a 5f3e
000001f0: e20d 5c3d 0ecb 9dbe 7133 583e 460d e83d
00000200: 0ca0 8b3e 1a21 943e c36b bb3d 59f2 66bd
00000210: 931a eebe c85e 803e 7ecb 08bf ef35 543e
00000220: 9fa2 8a3e 1587 973e 4a3c e13e 56e9 d3bd
00000230: d483 423e c3ac 9b3e f0cc b0bd a94e 243f
00000240: cda8 68be 01e0 7dbe 0d94 debc 1465 57be
00000250: 4662 8a3e 081f 7cbd f159 ea3e 86be 00be
00000260: 5e4a 03be d552 cd3e 0f0a e1be 6030 563e
00000270: 8644 283e dd9b 8c3e 8d7a 1dbe 0d45 0d3f
00000280: bf77 bfbd ee5c 543d 9b0d 1b3f 7802 adbe
00000290: 4ac1 bbbd c1ef a43e 8e07 93be 063c 083f
000002a0: 9762 0b3e a7f0 46bc 1bfe cf3e d640 953e
000002b0: fe68 2738 ac47 d03e efa5 203d 4848 303e
000002c0: 832d 8d3e 7108 9b3d 0dcc 353e 72f8 2c3e
000002d0: 2214 74be 4726 8d3e 5f4e ebbd 9a55 b23e
000002e0: 6429 103f dc20 73be 6925 0c3e 4acd 833e
000002f0: 3653 4abd b9b1 d63e b7b0 b0be e9de b4be
00000300: b0c8 80bd 626f 773e 6339 373e 5ea1 213e
00000310: 3333 333e f8df cfbc 75ac 0b3e 6cff b63e
00000320: 9999 eabe e065 113d 2e85 fb3d 7396 89be
00000330: 502a 503e 5012 8a3e b09e 533f f5b5 be3d
00000340: b29e d9be de11 dfbd c0d2 bb3e 4d1b 99bd
00000350: d328 743e 5e0e 2e3f 520f 163c ea85 9cbc
00000360: 12f6 c13d bc4a a5be bb1e 643e 8408 0dbe
00000370: 971f c83e a5a2 953d 36a3 b63e 18e6 14be
00000380: 3db1 943e e9bb 95be 6435 1b3e e5f9 5e3e
00000390: 5c24 613e 674a cdbe ec6b aa3d ce8a 86be
000003a0: 430a 373d abeb 9b3e a2c3 0a3e c361 443d
000003b0: c652 8bbe 46a1 8abe 829a 123f ded7 a1be
000003c0: 2cc3 ec3e 012f d53e e402 423e 6727 03be
000003d0: ba24 03bd 3a55 8a3d 6f11 a2be 3567 953e
000003e0: 911b e43e a07d 72bd 3137 14bf 6fbf f73d
000003f0: ae8f 9c3e a86d 29bf 1252 c1be b59a f03d
0.07546942 0.3598757 -0.1415628 0.36071897 0.37247396 0.51725185 0.39264974 0.37033597
-0.049185794 0.5053449 0.10099161 -0.06388066 0.4169709 0.020860646 0.583153 0.2765845
0.2055886 0.288238 -0.07141206 -0.24143234 -0.2281617 0.7322285 0.06845774 0.66830635
0.30508414 -0.13749796 0.19700247 0.41475597 -0.46727815 0.60624194 0.19264811 0.31223822
-0.045812752 0.5447924 -0.29268 0.5996339 0.47526821 0.24847409 0.29419485 -0.27239743
0.3126186 0.2581896 0.35448888 -0.07244089 -0.04898502 0.6018367 -0.413616 0.17164567
-0.004984263 0.285238 0.16798665 0.36708975 -0.26433888 0.12171376 -0.1659497 -0.1488324
0.43265203 0.36067837 0.45592177 0.32416135 0.07845971 -0.12314706 0.07051867 0.48559207
-0.23875897 -0.20816821 0.31415784 0.13973807 -0.041210156 -0.35273722 0.19518557 0.13723658
0.04256997 0.12172213 0.35818163 0.06529929 0.28664252 -0.30928943 0.42551568 -0.025265895
0.4311542 0.23043528 0.10599809 -0.4156673 -0.159948 -0.22713146 0.119450755 0.21293172
0.26912332 0.12425097 0.5715503 0.11641479 -0.42813358 0.6436932 -0.3774068 0.1487241
-0.3699075 0.112430826 0.20760027 0.17509443 -0.005995716 -0.0839568 0.5964033 0.28221288
0.44653097 0.16742377 -0.33079034 0.078619815 0.27702546 0.37548077 0.2098741 -0.412148
0.29139403 0.053616393 0.2037944 0.21410343 0.017599322 0.31690168 0.40652078 0.38349083
0.22567768 0.5037249 -0.031617396 0.21818069 0.053724177 -0.3081898 0.21113373 0.11330657
0.27270544 0.28931504 0.09151413 -0.056383464 -0.4650465 0.25072312 -0.53435504 0.20723699
0.27077195 0.29595247 0.4399131 -0.1034724 0.18995601 0.30405244 -0.08632839 0.64182526
-0.22720642 -0.24792482 -0.027170205 -0.21034652 0.27028102 -0.06155303 0.45771745 -0.12572679
-0.12821338 0.40102258 -0.43952987 0.20916891 0.1643239 0.27462664 -0.1537878 0.5518349
-0.09349012 0.051846437 0.60567635 -0.33790946 -0.09167726 0.32214168 -0.287167 0.5321659
0.13611828 -0.012142337 0.40623555 0.29151028 3.9913684e-05 0.4067968 0.039220747 0.17215073
0.27573785 0.075699694 0.1775362 0.1689165 -0.23835805 0.27568266 -0.114895575 0.34830934
0.5631316 -0.23743004 0.13686146 0.2574256 -0.049395762 0.41932467 -0.34509823 -0.35326317
-0.06288278 0.24163583 0.17892985 0.15784213 0.175 -0.025375351 0.13640006 0.35741746
-0.4582031 0.035497546 0.122812614 -0.26872596 0.20328641 0.26967096 0.8266401 0.09312049
-0.42503887 -0.1089208 0.36684227 -0.0747591 0.23843698 0.6799067 0.009158926 -0.019106824
0.09470762 -0.3228358 0.22277348 -0.1377278 0.390866 0.073064126 0.35671395 -0.14540899
0.29041472 -0.29244927 0.15157086 0.21775015 0.21986526 -0.40095827 0.08321366 -0.26277775
0.04468752 0.30453238 0.1355119 0.047944795 -0.2721159 -0.27076167 0.5726701 -0.31610006
0.46242654 0.41637424 0.18946415 -0.12808 -0.032017447 0.06754537 -0.31653926 0.29180303
0.44552281 -0.059201837 -0.57896715 0.1209706 0.3057837 -0.6618295 -0.37757927 0.11748258

ln1.weight f4 [300]
00000000: 4fc0 0c3f 9c89 563f bdb8 6f3f 6e21 e83e
00000010: b0df 093f f8f3 153f 7779 0b3f e253 073f
00000020: 1dfb 303f f545 203f ec1c f23e b9cb 113f
00000030: 2542 373f 4fe6 0e3f 145d 0e3f f271 263f
00000040: 7318 ea3e d56f 163f 4a9e 5c3f c20b bc3f
00000050: 064a ba3f b258 103f 60e6 0a3f ba09 dc3e
00000060: 5bd4 2b3f e97e a03f 28b4 f83e 9374 003f
00000070: 5a4f 663f 0fbd cf3e 1fc7 123f 17c5 063f
00000080: 09a3 213f f17e b93e 3f8d 903f 3f19 3e3f
00000090: 4cf4 243f 9746 4e3f 5f42 1e3f 887f 303f
000000a0: ecf3 0d3f ab95 0d3f 9b75 0a3f 5cca 2a3f
000000b0: 77ff ab3f 4d1d 0f3f 1606 433f f5ea 063f
000000c0: 0388 263f a77f 1c3f c6dc a53f 480d 103f
000000d0: f9c5 863f 0730 283f 1774 353f 0a41 923f
000000e0: 5d7b 1e3f 8fbd 283f 92fb 1f3f ea41 2f3f
000000f0: f5b2 2c3f 3dc5 2f3f 8fc1 113f 3ce4 333f
00000100: 00c6 573f 17b7 5a3f 2095 283f fdf8 4f3f
00000110: 6ab1 323f d6e4 283f b09e 2e3f b503 3e3f
00000120: 8ce2 083f 517b 413f 44e9 233f 2ff5 293f
00000130: 9382 3a3f a489 943f 8bb4 273f 99c5 153f
00000140: 74ce 1b3f c291 f33e c7da eb3e f7ce a13f
00000150: 463f b43f 2c77 823f e688 293f 8681 173f
00000160: 220e 2d3f 7a11 213f 3522 a73e 9bbd 4e3f
00000170: 2467 953f 8264 3a3f d77b 893f 3c40 183f
00000180: b42b 6e3f da3d 4d3f c5df bf3e 223f b03f
00000190: 2729 353f ff81 553f 957c db3e bdca 123f
000001a0: f937 023f 40a4 213f d7ab b93f 00ee 073f
000001b0: 5c7b 123f 825c 013f 00b6 fd3e e5dd 6d3f
000001c0: c237 dc3e 0d64 7e3f 8338 073f 939f e23e
000001d0: de24 1f3f c220 123f d6a0 013f 9ee7 273f
000001e0: bc8b 023f 2640 0c3f b3ec 143f 8a14 1d3f
000001f0: 02fe 273f eece 8c3f a830 5a3f 227e 2c3f
00000200: 2c80 023f 5344 0c3f 93ad 233f a6a9 5b3f
00000210: ec25 c43f 15bc 2b3f 6134 d93f 16ea 443f
00000220: 1d2f 2e3f 73dc e83e 77c8 583f 3676 833f
00000230: 6d63 373f c5de 203f 762d 393f cc50 3d3f
00000240: cd92 743f af3a 0040 fddf 353f 64bc 923f
00000250: d058 133f 9f58 3c3f 3c35 d43e 1bff 983f
00000260: 1491 1d3f bb8b dc3e 0960 943f da3a 1e3f
00000270: 1190 1b3f fe80 293f 2c39 f33e 5fdf 1f3f
00000280: abdb 1c3f 78f7 1c3f a31e 3a3f b5a4 963f
00000290: c09b 3a3f f537 3a3f d78c d63f 032a ea3e
000002a0: 807d f53e f850 323f 2007 ed3e f19e fb3e
000002b0: 5076 553f 4533 093f b564 493f 2faf 0f3f
000002c0: 9cba 0a3f 41ff 2e3f b3b5 383f eb7e 933f
000002d0: cfce a03f d39d 1c3f bc2e 683f 602e 033f
000002e0: 814d 1e3f 93f4 9e3f b467 303f ad3c 273f
000002f0: 5ff2 1b3f 7ee2 1a3f 9be5 b13f 61d8 723f
00000300: 69ad 073f 74f0 163f 3b40 103f 8382 353f
00000310: 5e04 1b3f 0ca8 883f 5671 293f de10 413f
00000320: 15b6 b13f 0281 343f 5ab5 253f ac02 0c3f
00000330: 5743 6b3f fea9 1e3f a0b3 0f3f f331 313f
00000340: f6c9 7e3f 5764 ad3f eeed 0f3f 481e 653f
00000350: fd4d 013f b49d 9c3e cb93 253f a6ee 3d3f
00000360: 164d 2c3f e369 283f a68d 473f 2c1d 463f
00000370: f017 2f3f 3594 213f 1f12 253f be85 213f
00000380: 1ce2 393f 57cc 8a3f 2838 483f 08e3 f43e
00000390: f6cd 0d3f d842 6b3f 78e0 253f a07b 3b3f
000003a0: 383d 033f 76d8 163f 6c4e 3a3f 833c 293f
000003b0: cd46 893f 7b61 473f 02d8 1d3f e37c 8d3f
000003c0: 5e76 383f 5575 1b3f ab6c 113f 563f 473f
000003d0: 3827 8b3f 6f78 1d3f ab1b cc3f 43d3 253f
000003e0: 5776 103f a695 233f ae60 863f 3d62 3c3f
000003f0: eaff 193f a5c0 ba3f d8df cb3f dd0f 583f
0.5498094 0.83803725 0.93641263 0.45338005 0.53856945 0.5857539 0.54482216 0.5286237
0.6913317 0.62606746 0.4728769 0.5695148 0.71585304 0.55820173 0.55610776 0.65017617
0.45721778 0.5876439 0.8617903 1.4691088 1.455384 0.5638534 0.54257774 0.4297617
0.67120904 1.253873 0.48574948 0.5017788 0.8996483 0.40573928 0.57335085 0.52644485
0.63139397 0.3622966 1.1293105 0.7425727 0.6443527 0.8057646 0.61820024 0.689446
0.5545032 0.553065 0.540857 0.66715026 1.3437337 0.55904084 0.7618116 0.52702266
0.6505129 0.6113228 1.2958 0.56270266 1.0529166 0.65698284 0.70880264 1.1426098
0.6190699 0.65914243 0.6249324 0.6845995 0.67460567 0.68660337 0.5693597 0.70270133
0.842865 0.8543562 0.65852547 0.812393 0.6980196 0.65974176 0.6821089 0.74224406
0.53470683 0.7557879 0.6402781 0.66389745 0.7285549 1.1604505 0.6550986 0.58504635
0.608619 0.47572142 0.4606535 1.2641286 1.408181 1.0192618 0.66224515 0.5918201
0.6759969 0.6291729 0.32643285 0.80758065 1.1672101 0.7280961 1.0740918 0.59473014
0.93035436 0.80172503 0.3747541 1.3769267 0.7076592 0.83401483 0.42868486 0.57340604
0.5086666 0.6314125 1.4505566 0.53097534 0.5721948 0.5053178 0.49552917 0.9291671
0.4301129 0.99371415 0.52820605 0.4426237 0.6216563 0.57081234 0.5063604 0.65587795
0.5099447 0.5478538 0.58173674 0.61359465 0.6562196 1.100065 0.85230494 0.67379963
0.50976825 0.54791754 0.6393673 0.8580574 1.5324073 0.67083865 1.696911 0.76919687
0.6804064 0.4548069 0.84680885 1.027045 0.71636087 0.6283992 0.7233499 0.7395141
0.955365 2.0035818 0.71044904 1.1463742 0.5755739 0.73572725 0.41446865 1.1952852
0.61549497 0.43075356 1.1591808 0.6180855 0.607667 0.6621245 0.47504556 0.6245021
0.61272687 0.6131511 0.72703 1.1769015 0.72893906 0.72741634 1.6761731 0.45735177
0.4794731 0.696548 0.46294498 0.491447 0.83383656 0.53593856 0.7866929 0.56126684
0.54190993 0.68358237 0.7215225 1.1523107 1.2563113 0.6117832 0.9069631 0.5124264
0.6183701 1.2418388 0.6890824 0.6532696 0.60916704 0.6050185 1.3898195 0.9486142
0.5299898 0.5896065 0.5634801 0.7090227 0.6055354 1.0676284 0.6618856 0.7541636
1.3883692 0.7050935 0.64729846 0.54691577 0.9189963 0.6197814 0.5613346 0.6921684
0.9952692 1.3546246 0.56222427 0.8949933 0.50509626 0.30589068 0.6467864 0.74192274
0.67305124 0.6578657 0.77950513 0.7738826 0.683959 0.6311677 0.64480776 0.630947
0.7261064 1.084361 0.7821069 0.4782946 0.55392396 0.9189887 0.6479564 0.7323551
0.5126529 0.58924043 0.7277591 0.6610796 1.0724732 0.7788312 0.61657727 1.1053737
0.72055614 0.6072591 0.5680644 0.7783102 1.0871344 0.6151189 1.5945944 0.64775485
0.5643057 0.6390022 1.0498254 0.735874 0.6015612 1.459004 1.5927687 0.84399205

ln1.bias f4 [300]
00000000: 6618 41bf c2e9 95be d787 52bf e424 c6be
00000010: c05d d8be c500 ddbe d8d1 23bf 82ee 23bf
00000020: 01f0 14bf 0e23 25bf 872f 21bf b06c 27bf
00000030: 5284 afbe c5f5 f0be 69b9 02bf d519 0fbf
00000040: 5fa2 f1be d981 8dbe 90bb afbe 8703 d63c
00000050: 201e bfbd 8f53 0abf b5bb 1dbf 3057 16bf
00000060: 006c 09bf 5151 d7be bf81 26bf bc7f 11bf
00000070: 2a54 e7be bc1e 0fbf 2a90 0dbf e002 19bf
00000080: 0ed7 1dbf e854 fdbe db56 50be 9f65 17be
00000090: 47a2 0cbf 9f80 edbe 46f8 30bf e517 0bbf
000000a0: 1e52 e2be 6368 42bf 9351 14bf 211f efbe
000000b0: 4c5b 463d f7f4 e8be afa0 24bf e57a 42bf
000000c0: 7987 9dbe 68db c3be 1666 76be 839d dbbe
000000d0: c63f f0bd 3ae0 1fbf d54a 3fbf 7b2a bdbe
000000e0: 67f3 dfbe a0f9 03bf aa4c 4cbf c55e 2abf
000000f0: 906c 1bbf 8290 d6be a06b f8be e097 7fbe
00000100: 30db 00bf ad77 49bf 4290 f7be bdec c5be
00000110: aa53 bebe 1b72 12bf 5b7c a2be b7c0 03bf
00000120: c5d9 44bf fe47 82be 2a7d e7be 87c3 b0be
00000130: ae09 e1be 7bcb 38be b1c9 01bf f2d0 2ebf
00000140: f82c f7be 810f 20bf 5c87 efbe 334a 98be
00000150: 092c 81be 1358 c3be 464f f3be 7bd2 cabe
00000160: 1a80 e3be d1c3 f8be 9068 28bf 5ba8 fabe
00000170: 2da5 25be 7709 0abf c1ff aebe e44b 2abf
00000180: a14a 2fbe ba25 f1be c321 41bf a98f 0dbe
00000190: 1509 c9be 5ab8 dabe 31f9 0cbf 9078 d8be
000001a0: c2ae 17bf 0bd2 2ebf 73e9 76be 84b6 2fbf
000001b0: 01a0 31bf 8386 e1be 91cb b2be 5f97 d7be
000001c0: ed02 54bf 77c2 9fbe ef35 11bf 81f7 32bf
000001d0: 21e5 2dbf aeae 19bf 0c23 05bf 17c6 10bf
000001e0: f3c0 08bf 162f 23bf 5b69 3cbf 8b18 3bbf
000001f0: e7cb 76be 2df7 b3be 4567 b3be 0f80 13bf
00000200: 4e4e 26bf d268 1abf 505f 15bf 46cb a5be
00000210: 1ce7 01be 3e6c 9dbe 0ac0 26be 8ced 18bf
00000220: bb09 12bf b96e 1fbf 3400 d8be 943a 00bf
00000230: 9891 c4be 63c7 f6be 0c21 3ebf 041b d8be
00000240: d6f5 d1be a52b bcbd 854a 38bf 083d debe
00000250: 093f 05bf 0456 08bf ac27 21bf 8586 41be
00000260: 2ac2 8dbe 6c71 4abf 2980 1fbf 69f3 f7be
00000270: 5dcd a0be 2e71 ccbe bf16 13bf 0ec9 82be
00000280: 9097 1fbf 1a3b febe 36f8 92be 8c7c acbe
00000290: 3fb7 efbe 7ec7 02bf 7c42 3dbe b7c6 43bf
000002a0: 800f 27bf 1292 39be 5a76 3cbf 4b9b 0fbf
000002b0: a92e 33be 2004 1dbf 3e6c 39bf 8cdb 13bf
000002c0: 9d39 49bf a222 dbbe 15fe ffbe 762f fabe
000002d0: 30dc 2dbe 00d1 0dbf 3531 c6bd 5533 19bf
000002e0: a874 16bf 71d6 c5be c9e2 adbe f64c 0abf
000002f0: 5fde 09bf afd5 b9be 79c3 56be 130b 07bf
00000300: 22f6 35bf 643b e7be b12c fabe 0bae fbbe
00000310: 31d5 f6be e29e c6be 9ef0 00bf 09bf f2be
00000320: 4f57 8ebe 7510 03bf 2dc3 fabe aba6 15bf
00000330: bb00 d8bc ec2d e8be 5f11 ffbe 3851 edbe
00000340: df49 06bf fdfb 65be 339a 1abf d5a1 cebe
00000350: 02bd 17bf 9e35 53bf 430f 37bf 0def 06bf
00000360: 816b dbbe 0a96 11bf dc06 84be 1ddb 06bf
00000370: 036b 07bf 53b2 11bf 156b 07bf d50e 45bf
00000380: 0cdb d3be e027 fdbe efd7 cfbe 4239 22bf
00000390: 4725 03bf 8019 e2be 7e5d 4cbf 669c 2dbf
000003a0: adbc 0dbf c3b7 27bf f7a5 5ebf 06f5 0abf
000003b0: d6b1 18bf 4959 1abf 42fc 1abf eb72 9dbe
000003c0: 2fbd a5be e783 e1be 116b 11bf 5915 04bf
000003d0: e551 2dbe 2720 47bf 707b 07be ca31 20bf
000003e0: 178b d4be e07b 1ebf acc5 9ebe 8463 ccbe
000003f0: 90ff 04bf c405 b6be 91cb 203e add6 47be
-0.75427854 -0.29279906 -0.82238525 -0.3870002 -0.42259026 -0.4316465 -0.6399207 -0.6403581
-0.58178717 -0.64506614 -0.62963146 -0.6540022 -0.3428064 -0.47062507 -0.51064163 -0.5589879
-0.47194192 -0.27638128 -0.34322786 0.026124729 -0.09331918 -0.5403375 -0.61614543 -0.5872679
-0.5368042 -0.42054227 -0.65041727 -0.5683553 -0.451814 -0.5590627 -0.552981 -0.5977001
-0.6165627 -0.4947884 -0.20345633 -0.14784859 -0.54935116 -0.46387193 -0.69128835 -0.54333335
-0.44203275 -0.7594053 -0.5793697 -0.46703437 0.04842691 -0.45499393 -0.64307684 -0.7596877
-0.3076742 -0.3825333 -0.2406238 -0.4289361 -0.11730914 -0.6245152 -0.7472356 -0.36946473
-0.4374039 -0.5155277 -0.7980448 -0.66550857 -0.6071253 -0.41907126 -0.4851961 -0.2496028
-0.50334454 -0.78698236 -0.48352247 -0.3865718 -0.37173206 -0.5720536 -0.317355 -0.51465935
-0.7689479 -0.2544555 -0.4521268 -0.34524176 -0.43952698 -0.18046372 -0.5069838 -0.68287575
-0.48276496 -0.6252366 -0.46782959 -0.2974411 -0.2522891 -0.38153133 -0.47521418 -0.3961371
-0.4443367 -0.48586896 -0.6578455 -0.4895657 -0.16176291 -0.5392069 -0.341795 -0.6652205
-0.17118312 -0.47099096 -0.7544214 -0.13824333 -0.39264742 -0.42718774 -0.55067736 -0.42279482
-0.59251034 -0.6828925 -0.24112491 -0.6863787 -0.6938477 -0.44047937 -0.34920934 -0.42107674
-0.82816964 -0.31203052 -0.5672292 -0.6990891 -0.6792775 -0.60032165 -0.520066 -0.5655226
-0.5341942 -0.6374372 -0.7359826 -0.73084325 -0.2410122 -0.35149518 -0.35039726 -0.57617277
-0.64963233 -0.60316193 -0.5834856 -0.32381648 -0.12685817 -0.30746645 -0.16284195 -0.5973747
-0.570461 -0.62278324 -0.42187655 -0.50089383 -0.3839233 -0.48198995 -0.74269176 -0.4220811
-0.4100787 -0.09188012 -0.7198871 -0.43405938 -0.5204931 -0.5325625 -0.6295116 -0.18898971
-0.27687198 -0.7907932 -0.6230493 -0.48427895 -0.3140668 -0.399301 -0.5745658 -0.25544018
-0.6234064 -0.49654466 -0.28704995 -0.33688772 -0.46819493 -0.5108565 -0.18482393 -0.7647509
-0.65258026 -0.18122128 -0.7361809 -0.56096333 -0.17498268 -0.6133442 -0.7243079 -0.57756877
-0.78603536 -0.4279986 -0.49998537 -0.48864335 -0.16978526 -0.55397034 -0.09677354 -0.5984395
-0.58771753 -0.38640168 -0.33962086 -0.54023683 -0.53854936 -0.3629584 -0.20973004 -0.5275127
-0.71078694 -0.451625 -0.48862222 -0.49156222 -0.48209527 -0.38793093 -0.5036715 -0.47411373
-0.27800986 -0.51196986 -0.48977032 -0.5845744 -0.026367536 -0.45347536 -0.4981794 -0.46351027
-0.5245647 -0.22459407 -0.6039154 -0.40357843 -0.5927278 -0.8250369 -0.7150766 -0.5270851
-0.42855456 -0.56869566 -0.25786483 -0.5267809 -0.5289766 -0.56912726 -0.5289777 -0.76975757
-0.41378057 -0.49444485 -0.40594432 -0.6336862 -0.51228756 -0.4416008 -0.7983016 -0.6781677
-0.5536602 -0.65514773 -0.8697199 -0.54280126 -0.59646356 -0.6029249 -0.60541165 -0.30751738
-0.32370898 -0.44045946 -0.56803995 -0.51595074 -0.16925772 -0.77783436 -0.13230681 -0.6257597
-0.41512367 -0.6190777 -0.31010187 -0.39919674 -0.5195246 -0.35551274 0.15702654 -0.19515486

fc2.weight f4 [200, 304]
00000000: 676b b0bd 4b8b b0bd 9ca9 0bbe eaa8 833c
00000010: 3818 afbd 741a 03be ec80 4fbc e291 40bd
00000020: 0e85 273d 7f1d eebd a8de aabc fe2c 0cbe
00000030: a3d4 3ebc 6c32 723c de80 75bd be64 ba3c
00000040: 6b0a 853d ae72 6cbd e9fa 6d3c 6c4b 52be
00000050: ca1d d6bd b4d1 143b c699 10be c63b bfbd
00000060: 64b4 bb3b d48f 8ebd 53b7 4ebc 4e31 583d
00000070: 0de7 e6bd 1d88 acbd 23c5 72bd fa72 57bd
00000080: c3da c1bc cac0 d9bd acc9 babd 2347 da3c
00000090: 9f0d 24be 1aa2 32bd 5990 65bb 211c 6d3c
000000a0: 64b6 b9bd 20f7 00bd 55b3 60bd e50c 163c
000000b0: 3473 a0bd 0c4c 3abd 989a 213d b037 b8bc
000000c0: f2c4 00be 9ba8 8ebd 744e 19bd 027f c4bd
000000d0: 9548 d5bd 51f1 d83c 66bb 6cbd bcae b3bc
000000e0: 1eda f2bc a95d 1abd 1899 35bd 4411 d7bd
000000f0: fdc1 6bbd 3703 65bc 2960 ff3b 7d61 9a3c
00000100: e722 a4bd 6032 2bbd f62c adbd 1c55 c2bd
00000110: b16b debd e870 99bd fdbc cabd f97a b3bd
00000120: 27ab 80bd a471 a2bd 87d7 b23c 2770 ff3b
00000130: 41a6 bd3c 80d4 123c d1a0 1b3c 2483 08bd
00000140: a30d d2bd 9051 433b a034 b7bd 65a2 c9bd
00000150: b9b4 e8bc f96c 39bd 9eac 80bc 6acc db3c
00000160: 1a07 01be 6f86 bbbd 1ca9 62bd 1e03 113c
00000170: ea5d 36be 353a 12bc d688 f7bd e251 503d
00000180: fa8d 56be d4d0 133c 37a0 d13d 9fa2 50bd
00000190: 5d2b a9bc 12ce 57bc 942e 8dbd d35d c8bd
000001a0: bc79 f23c bd03 a8bd 717f 48be 9210 e3bd
000001b0: 9a65 e43b 300a cfbd d478 01be b6ed 063d
000001c0: d2b1 f13c 29f0 8bbd c74d 46bb cee9 b8ba
000001d0: 9df1 3e3d 50db 86bd 1113 2e3c 3201 6b3c
000001e0: 4af6 563c 5d85 d93d 7ce1 023d 83b0 a53c
000001f0: a001 653d 6d38 833d 7256 cdbd 8016 34ba
00000200: 8b72 be3c 4fca f33c 0426 95bd ead2 d6bb
00000210: c6ed d0bd 3007 1dbe 802b e4bd 0e1f 7a3d
00000220: 7e59 27bd d3ac 513d 4aed 0a3c 4b64 82bd
00000230: 7c14 b13d 73e3 1c3d ab8b a53c e65a a4ba
00000240: 51f1 9f3d 502e abbc c01e 0ebe 3013 3d3d
00000250: 2ee4 c2bd da3c a4bc a4d2 e8bd a564 2ebd
00000260: 0c15 79bd 301c 08bd da37 abbd 7979 1abd
00000270: 8730 49bd 6e54 acbd 8423 f73c 461b e73b
00000280: 5e6d c3bb 362c a3bc 1ccc f8bc cf65 26bd
00000290: 173a 2bbd 725c a13c bb76 87bd dc0b 3e3c
000002a0: 6e72 eb3c 62bf 9fbd a3d7 7cbd 46dd abbd
000002b0: e66f 15be 8b0c 87bd 7ec1 f63b 45e3 53bc
000002c0: 6b05 2dbd 71b1 40bc b5ba fabd 8a77 d3bd
000002d0: 9af5 d03b 7c40 0abd a6be 783d 3eb0 ffbd
000002e0: 6a29 8b3c bf65 febd cfa9 443b a909 75bd
000002f0: 1252 acbc 86a4 febc 3a7f 0fbe 8364 1d3c
00000300: bd24 b9bd 81b0 0b3c 3302 5b3b 7bbd d63c
00000310: 8659 0d3d b307 45bd 294b cdbd c620 863b
00000320: b52c 75bd 78c6 68bd 1896 80bd 1cac 90bd
00000330: eba7 86bd 5b00 d43d fbc6 a8bd f5a5 a4bd
00000340: 3677 13be efd9 f0bc 5dd9 173c 2005 e7bd
00000350: 0f54 513c 111a 53bb 7ced 86bd 51b8 3fbc
00000360: 34ba 493d 74bf 90bb 62b6 053c 7024 bcbd
00000370: 0b38 bcbd 0973 f2bc 72dd 6bbd 704a 1ebc
00000380: 8f8a a93b 6111 d5bd a684 9fbd 7e72 4abb
00000390: 7696 183d bb2f 9fbb 52c8 ce3c c963 30bc
000003a0: c71f 453c ee1f 573a 27c0 0dbe b6f9 ba3c
000003b0: b2c2 47bd 00b2 98bd 3b10 46bd a4c4 04bd
000003c0: 12ff a83b c105 0f3d 19b1 d9bd 5b2b 22bd
000003d0: 68f2 fdbd e0ac 873d c174 b9bc df8e 613b
000003e0: ea82 9f3d 5026 c03d d225 58bd 50a4 1f3d
000003f0: 5564 c8bd 72aa 8bbe 91d2 5bbd 2a88 90bc
-0.08614235 -0.08620318 -0.1363892 0.016071755 -0.08549541 -0.1280306 -0.012665015 -0.047014125
0.040898375 -0.1162672 -0.020858124 -0.13689038 -0.011647376 0.014782529 -0.05993735 0.022753116
0.06496128 -0.057726555 0.014525154 -0.20536584 -0.104549006 0.0022708 -0.1412116 -0.09337573
0.0057282913 -0.06961027 -0.01261695 0.052781396 -0.11274538 -0.08424399 -0.059270035 -0.052599885
-0.023663884 -0.10632475 -0.09120497 0.026645249 -0.16020821 -0.043611623 -0.0035028665 0.0144720385
-0.090679914 -0.031485677 -0.054858524 0.009158348 -0.07834473 -0.04548268 0.039454073 -0.022487491
-0.12575129 -0.06965753 -0.037428334 -0.09594537 -0.104142345 0.026482256 -0.057795905 -0.021933906
-0.029645022 -0.037686978 -0.044335455 -0.1050134 -0.05755805 -0.013977817 0.0077934456 0.018845314
-0.080144696 -0.04179609 -0.08455841 -0.094888896 -0.10860384 -0.07492238 -0.09899328 -0.087636895
-0.06282645 -0.079318315 0.021831287 0.007795352 0.023150565 0.008961797 0.009498791 -0.03332819
-0.10256507 0.0029803254 -0.08945584 -0.098454274 -0.028406488 -0.04526994 -0.01570731 0.02683087
-0.12600365 -0.091565005 -0.055337057 0.008850841 -0.17809263 -0.00892501 -0.12086646 0.05085934
-0.20952597 0.0090219565 0.10235637 -0.050936338 -0.02065056 -0.01317169 -0.0689365 -0.097835205
0.029599063 -0.08203838 -0.19579865 -0.11087145 0.0069701197 -0.10109365 -0.12643749 0.032941543
0.029503737 -0.06832916 -0.0030258761 -0.0014107765 0.04661714 -0.06584799 0.010624663 0.014343547
0.013120243 0.1062114 0.03195332 0.020225769 0.055909753 0.06407247 -0.10026254 -0.0006869808
0.023247978 0.029759554 -0.072826415 -0.0065559046 -0.10201602 -0.15334773 -0.111411095 0.061064772
-0.04085683 0.05119021 0.008479426 -0.063667856 0.08646485 0.03830285 0.0202082 -0.0012539297
0.07809699 -0.020896107 -0.13878918 0.046160877 -0.09516178 -0.020048548 -0.113683015 -0.04257645
-0.060811087 -0.033230007 -0.08360262 -0.0377135 -0.049118545 -0.08414541 0.030168302 0.007052812
-0.0059639653 -0.019918542 -0.030370764 -0.040624436 -0.041803446 0.019697402 -0.06614443 0.011599507
0.028741088 -0.07800175 -0.061729085 -0.08391814 -0.14593467 -0.06594189 0.0075303903 -0.012932603
-0.042241495 -0.011761055 -0.12242643 -0.10325535 0.0063769342 -0.033752903 0.06072869 -0.124847874
0.016987521 -0.1242175 0.003000844 -0.059823666 -0.021035228 -0.03108431 -0.14013377 0.009606483
-0.090402104 0.0085259685 0.003341806 0.026213398 0.034509204 -0.048103046 -0.10024101 0.0040932624
-0.05985709 -0.0568299 -0.06278628 -0.07064077 -0.065749966 0.1035163 -0.082410775 -0.08039466
-0.14400944 -0.029400794 0.009268132 -0.112802744 0.012776389 -0.0032211582 -0.06588265 -0.011701659
0.049249843 -0.0044173542 0.008161159 -0.091866374 -0.09190377 -0.029595869 -0.057584234 -0.009661302
0.005173988 -0.104037054 -0.077889726 -0.0030890997 0.037252866 -0.004857985 0.025242005 -0.010765978
0.012031502 0.0008206357 -0.13842832 0.02282415 -0.04876966 -0.07455826 -0.048355322 -0.032414094
0.00515736 0.034917597 -0.10629482 -0.03959213 -0.12399751 0.0662477 -0.02263868 0.0034417433
0.07788642 0.093823075 -0.052770443 0.03897506 -0.09784762 -0.27278477 -0.05366761 -0.017643053

fc2.bias f4 [200]
00000000: 2682 26bd b773 81bd 6c89 14bd 7686 90bc
00000010: f27b 96bd 19ab 06be b1a1 f3bd f346 44bd
00000020: fec5 b6bd a967 90bd 8053 5ebc 37e1 84bd
00000030: 8a9a 90bd 2089 8a3a 0828 ffbd ab74 04bc
00000040: 1346 7abd c2c1 263b f323 ddbb abd2 08bd
00000050: 945c 6ebd aa98 91bd 53ab 5fbd 01d5 52bd
00000060: 3fef a5bc b175 3ebd 9188 e63d 3171 abbd
00000070: d074 50bd d131 84bd ae6f d53d 81d7 5fbc
00000080: f7e4 a9bd 45bd 4ebd 61da babc 1fc4 91ba
00000090: 7b5a c6bc 5fd9 9abd b0ca 833e 4281 7cbd
000000a0: 4e55 b2bd fcac e8bd 4fdf abbd c275 71bd
000000b0: a57e 28bd e864 2abd dc65 e1bd 6152 61bd
000000c0: 0f58 c4bd 159b 55bd 350c 46bd 984b debd
000000d0: 6d7a 97bd 082b b2bd 9287 8cbd 4203 333c
000000e0: 113e 0bbd d9c1 9dbd 6eac e9bd f847 febb
000000f0: 07ec 32bd f190 63bd 4916 22bd 79d1 e5bd
00000100: 6142 87bd 3a8b 9bbd 95fb 43bd 95cf cabd
00000110: 8929 10bd 643c 34bd 797a 25bc 2053 01be
00000120: 50af bdbd f155 b0bd 3e7a 39bd fc75 d6bd
00000130: a8a3 143e bfaf 5dbd 6f1b dcbd bd39 abbd
00000140: 9311 f6bc 1e38 adbd 61fd dc3d 0f35 ccbc
00000150: 11f0 bbbd 54a9 223d ec03 e1bd ac53 a2bd
00000160: a1a1 b4bd ec00 fcbc a0ca 863e cea4 11bd
00000170: d83f 26bd e522 a53d 473a 91bd 47ac 68bd
00000180: 97e9 3fbd 0007 55bd a3b5 9dbd 8010 dcbd
00000190: c3fc 913c 7f26 993c 370e 25bd ce2f edbc
000001a0: 22c4 053e b2ac 76bd 9023 f8bc 81c1 0dbd
000001b0: acd5 7cbd 95d4 89bc 0ff8 c6bd c02e b7bc
000001c0: e62c febc 59a3 eabc ba52 07bd 6c06 11bd
000001d0: 9c72 dfbd f649 71bc 8065 0ebd 6520 f6bd
000001e0: 7b27 80bd ebac 81bd 9f5b 60bd aa17 1bbe
000001f0: c03d 93bd 8446 58bd d138 533c 1e5f ddbd
00000200: 504b 8abd d6a7 0abd 7fad 7dbd 15c4 ecbd
00000210: 4a1c 79bd 5f06 f9bc 98ed dcbc 0e90 babd
00000220: 1086 a7bd afc8 1ebd 97b9 9dbd fd38 bdbd
00000230: ecb7 80bc ef31 92bd 633e 0dbd 7e87 a7bd
00000240: 4bd7 a2bd 369b 76bd 25a6 59bd 546c 293e
00000250: c739 19bb 8751 bcbd b85c 933e fe53 50bd
00000260: e450 45bc dae7 3b3e 7783 6ebd 2d46 17be
00000270: 2fa8 04bd c6d0 3bbd 52eb d6bd 16e9 b03d
00000280: f554 d7bd 7bd0 17bd 7b2c 01be b76e 03be
00000290: e15d 7bbd 9696 21be b6e9 99bc c6dd bfbd
000002a0: f942 6e3c 4c40 babd 4679 80bc 7229 393e
000002b0: 8679 4bbd b587 9ebd e3d6 243a 9d66 e7bc
000002c0: 079e a53b 9e72 e5bd 521c 4abd 526f b8bd
000002d0: 029e a43d 1b4f e0bd 578b 0fbc 9033 d0ba
000002e0: f351 98bd fd9e b8bd f2ca 7abd 9548 0bbe
000002f0: 5d60 92bc a05f 55bd 0456 cfbd 6114 50be
00000300: c17c 403e 5545 a3bd d6be 2dbd 96c6 89bd
00000310: e0e3 debd 5101 61bd 9186 09bc 7bc5 efbd
-0.040651463 -0.06320899 -0.03626387 -0.017642241 -0.073478594 -0.13151206 -0.118960746 -0.047919225
-0.08924483 -0.070510216 -0.013569713 -0.06488269 -0.07060726 0.0010569431 -0.12458807 -0.008084456
-0.061101984 0.0025445078 -0.0067486702 -0.033404034 -0.058193758 -0.071091965 -0.054606747 -0.051472668
-0.020255683 -0.046498958 0.11256517 -0.08371199 -0.05089265 -0.06454814 0.10421692 -0.01366222
-0.08295625 -0.05047347 -0.02280921 -0.0011121071 -0.024213066 -0.075609915 0.25740576 -0.061646707
-0.08707677 -0.11361119 -0.08392202 -0.058950193 -0.041136403 -0.041600138 -0.11005756 -0.055010203
-0.09587108 -0.05214985 -0.048351485 -0.10854262 -0.07396398 -0.08699614 -0.068617955 0.01092607
-0.033994738 -0.07702989 -0.114098415 -0.007760044 -0.043682124 -0.05555815 -0.039572034 -0.11221594
-0.06604458 -0.07594915 -0.04784735 -0.099028744 -0.03519586 -0.044002905 -0.010100001 -0.12629366
-0.09261954 -0.08610142 -0.045282595 -0.104717225 0.14515555 -0.054122683 -0.1074742 -0.08360622
-0.030037677 -0.08457969 0.10790516 -0.024927644 -0.091766484 0.039712265 -0.10987076 -0.079261154
-0.08819891 -0.030762158 0.26326466 -0.03555756 -0.04058823 0.08063296 -0.07091194 -0.05680492
-0.046853628 -0.05200863 -0.0770066 -0.107453346 0.017820721 0.018695114 -0.04029676 -0.02895346
0.130631 -0.06022329 -0.030290395 -0.034608368 -0.06172721 -0.016825 -0.09715282 -0.02236116
-0.031027269 -0.028642343 -0.03303788 -0.035406515 -0.10910532 -0.014727106 -0.034764767 -0.120178975
-0.0625753 -0.063318096 -0.054774877 -0.15145746 -0.07189512 -0.052801624 0.012891964 -0.10809158
-0.06752646 -0.033851467 -0.061933037 -0.11560837 -0.060817994 -0.030398546 -0.026968762 -0.091095075
-0.08179867 -0.038765606 -0.07701414 -0.09239385 -0.0157127 -0.0713843 -0.034483325 -0.0818014
-0.0795122 -0.060206614 -0.053136963 0.1654523 -0.0023380385 -0.091952376 0.28781676 -0.05086135
-0.012043212 0.18350163 -0.058230843 -0.14772864 -0.032386955 -0.0458534 -0.104941025 0.086382076
-0.10514251 -0.037064057 -0.12614624 -0.12835203 -0.061368827 -0.157801 -0.0187882 -0.09368472
0.014542335 -0.09094295 -0.015682828 0.18082216 -0.04967644 -0.07740728 0.0006288124 -0.028247172
0.0050542387 -0.11203502 -0.049343415 -0.09005608 0.0803795 -0.10952588 -0.008761249 -0.0015884507
-0.074375056 -0.090146996 -0.0612287 -0.13601907 -0.017868215 -0.05209315 -0.10123828 -0.20320274
0.1879759 -0.079722084 -0.042418323 -0.067273304 -0.108833075 -0.054932896 -0.0083939 -0.11707588

fc3.weight f4 [1, 200]
00000000: 496a e73c 320e 82bc 0abb f2bc 35fa 1f3c
00000010: 0334 ea3c 7a20 8ebc a7c7 38be 5d67 94ba
00000020: d14a 423c ad67 dfbb 52cd edbb b99f 3bbb
00000030: 9265 8ebc 63a2 213a 40f9 2abb dee4 cab9
00000040: a65f 263a 89fc 01be acf3 9ebc 2c4a e2bc
00000050: db00 d6bc 47cc 873c bc3b 303c a79d d43c
00000060: af2e 153c 108d 00bb 9f8d af3d 4450 e93c
00000070: b83f e33b 966b fd3c b037 c53d 7acd 25bc
00000080: 9789 b6bc 09c6 18bd 6119 e4bc b721 10bc
00000090: 5fc1 7ebc 6fb1 853c dab4 133e 0cf8 51bb
000000a0: ec62 5b3c 24b5 c03c 3183 e7bb 3f19 38bd
000000b0: c6a7 dfbc f0dc 57bc 96bf 96bd 53d5 bdbc
000000c0: d555 aebb 046c afbb 745b 523c d750 cd3c
000000d0: ff40 9abb 9b6a 1bbc c959 e33c 3409 ff3d
000000e0: b067 14bb 3bed afba 3969 de3d 917d 873c
000000f0: 7816 933c 2703 5c3b 6587 dcbc 3049 f9bc
00000100: 0a62 5c3c 68e4 453c b81a b53c ea9d 4039
00000110: 1d6c cdbc 364e efbc 68fc 62b9 bbf6 7cbc
00000120: 0aa7 7cbc bb6c 56bb f5d9 d73c bb66 9fbc
00000130: 3a2f c53d a94a 37bc 7de1 dd3b e7a8 03bc
00000140: d798 e9bc 586a 9cbc 274e 9e3d 6c07 b839
00000150: e9ce b5bc e7c9 863d 026e 7e3c e746 c53c
00000160: 26aa bcbb 1710 8f3c 05bb b73d 3445 bebd
00000170: 2d69 8b3b 04de 9f3d 07bd d0bc 6187 743b
00000180: 60e3 9d3b c77d 2c3c b5a2 7ebc 851f bcbb
00000190: 6c91 f33b 5070 7f3d cf72 3abc 42f9 103d
000001a0: 5da5 1c3d 7ebf e7bc 0b70 ae3c e461 833c
000001b0: ef87 013c c9af e33c 010a a73c 67c8 373c
000001c0: 6c35 f4bc e066 3e3c 1f15 ce3b 8057 3c3c
000001d0: b2c9 983c ac65 ae3c bd05 cf3b cece 24bc
000001e0: 76ce 603b efac a6bb f206 f33c 5180 0fbe
000001f0: 7554 20bc 0e46 133c d631 3a3a 5d90 d03c
00000200: 61fd c03c d805 f0bb c013 bdbc c240 f43c
00000210: 8b43 e7bc 2a1d f4bc fe6a adba a3e0 573c
00000220: 15f2 d5bd 39ea bfbc 423f 043c 161c 04bd
00000230: a9d6 813a c47b b1bc 3bdd 37bc 44da 00bb
00000240: ad52 ef39 0b6c 2f3c 2999 b3bb f27a ce3d
00000250: f1bb b93d a4f8 a53a e41b 053e 04fd 2939
00000260: 45a7 0f3c 0401 e73d e53a 893c 1f0f 17bc
00000270: 4cb4 d0b9 56b6 8ebc a07f 33bd 0080 ef3d
00000280: 6bb5 cd3c ad9b 07bc 40f3 97bc 9093 01bb
00000290: 1ac4 54bc 6146 0ebe 8e8a 1bbc 69e4 8abb
000002a0: 92b2 12bd b780 6dba 5c57 d0bc 7865 083e
000002b0: f9dc 983b beb6 31bb bbd9 7abd 0759 b939
000002c0: 63f5 543c 3424 de3b 9600 1cbc a5c1 dabc
000002d0: 0935 a93d 99a0 86bc 4492 9d3c 75a8 073c
000002e0: a905 9f3b d664 95bb 64ca 183c 83af 25bc
000002f0: e0c4 873b 3637 913c a8f5 ae3b a4a3 27bd
00000300: 2e70 613d 51c5 fb3c dde0 183a d5ff 1cbc
00000310: 30d5 9b3c 0a4c 833c b26b 14bd 15e9 923c
0.028248923 -0.01587591 -0.029630203 0.009764244 0.028589254 -0.01734947 -0.18044911 -0.0011322309
0.011858658 -0.006817779 -0.007257142 -0.0028629138 -0.017382417 0.000616586 -0.0026088506 -0.00038698962
0.000634665 -0.12693991 -0.019403301 -0.027623259 -0.026123455 0.0165769 0.010756429 0.02595408
0.0091053685 -0.001961533 0.08571934 0.028480656 0.006935086 0.03093509 0.09629762 -0.01011979
-0.022282405 -0.037298236 -0.027844133 -0.008797101 -0.015549033 0.016319958 0.14424458 -0.0032038717
0.013390284 0.023523875 -0.0070652 -0.04494595 -0.02730168 -0.013175234 -0.07360761 -0.02317301
-0.0053202906 -0.0053534526 0.012839187 0.025062962 -0.004707455 -0.009485866 0.027752774 0.12452927
-0.002264481 -0.0013422141 0.108599134 0.016539367 0.01795505 0.0033571215 -0.02692003 -0.030430406
0.013451109 0.012078382 0.022107467 0.00018369374 -0.025075966 -0.029212099 -0.00021647068 -0.0154396845
-0.015420685 -0.0032718617 0.026349047 -0.019458165 0.096281484 -0.011187234 0.006771265 -0.008035875
-0.028515263 -0.019093677 0.0772975 0.00035100745 -0.022193389 0.065814786 0.015529158 0.02408166
-0.005757588 0.017463727 0.08971218 -0.09290543 0.0042544813 0.07806018 -0.02548076 0.0037312137
0.004818365 0.0105280345 -0.015541722 -0.005741062 0.007433107 0.06236297 -0.011379912 0.03539396
0.03824364 -0.028289553 0.02129366 0.016037889 0.007905944 0.027793782 0.020390512 0.011217213
-0.02981063 0.011621207 0.006289139 0.011495471 0.018650863 0.021288715 0.0063178227 -0.010059072
0.0034302748 -0.0050865333 0.029666398 -0.14013793 -0.009785761 0.00898887 0.0007102763 0.025459463
0.02355832 -0.0073249154 -0.023080707 0.029816035 -0.02823045 -0.029799063 -0.0013230739 0.013176116
-0.10446564 -0.023427116 0.008071722 -0.032253347 0.0009905893 -0.021665461 -0.011222179 -0.0019661346
0.0004564723 0.010706912 -0.0054809046 0.10082044 0.0906905 0.0012662602 0.1299892 0.00016211352
0.0087679075 0.112794906 0.016751716 -0.009219914 -0.00039807183 -0.017420929 -0.043822885 0.11694336
0.02511092 -0.008276862 -0.018548608 -0.0019771792 -0.012986207 -0.13894035 -0.009493483 -0.0042386544
-0.03581483 -0.00090600125 -0.025432281 0.13319957 0.004665014 -0.002711698 -0.0612428 0.0003535228
0.012997958 0.006779218 -0.009521624 -0.026703665 0.08262069 -0.016434 0.019234784 0.008279909
0.0048529697 -0.0045591397 0.009325597 -0.010112646 0.0041433424 0.017726522 0.005339343 -0.040927544
0.055038624 0.030733736 0.0005831847 -0.0095824795 0.019022554 0.01602747 -0.03623552 0.017933408
