P1 Navigation/checkpoint.pth (torch, 29551 bytes, 6 tensors)

fc1.weight f4 [64, 37]
000000 c9 4d 26 bf 01 c6 8e 3e 26 f7 a3 bd c2 13 07 3d
       -0.6496244 0.2788544 -0.08006124 0.032977827
000010 10 fa 91 be d6 86 ed bd a7 ff c1 3d 38 16 b8 3d
       -0.28511095 -0.115979835 0.0947259 0.08988613
000020 41 a6 88 bc ff 56 09 be 09 55 2f be 36 87 0b be
       -0.016680839 -0.13412093 -0.17122282 -0.13625798
000030 7e d9 65 bd 22 37 bb bc c9 23 99 3d bd ec 50 bf
       -0.05611562 -0.022853438 0.074775286 -0.81611234
000040 46 0c 93 3e 6e 93 c0 3c d4 4c 2a 3d 93 31 59 bf
       0.287203 0.0235078 0.041577175 -0.8484127
000050 e5 ba 5e 3e 11 9d ef bc 11 bb 58 bd 1f f9 fa bd
       0.21750982 -0.0292497 -0.052912775 -0.12254547
000060 e4 a4 b4 3d 45 9d be be a7 0b c8 3e 7e 80 9f bb
       0.08820513 -0.37229362 0.3907139 -0.0048676124
000070 ac c7 93 bd 7f 46 ea be 46 ce 3c be 1e 3c 4b 3c
       -0.07215819 -0.4575691 -0.18438062 0.01240447
000080 d4 93 6c 3c 62 65 3c 3d f7 15 9a bd f6 d3 38 bd
       0.014439542 0.045995124 -0.07523721 -0.045124017
000090 24 9e cc 3a 15 da f0 3d f3 ff 56 3e 33 8b a0 3d
       0.0015611094 0.11760346 0.20996074 0.0783905
0000a0 af e0 57 3c 1e d5 47 bd d7 04 bc 3e 3d 74 7f bf
       0.013176127 -0.04878723 0.36722443 -0.9978674
0000b0 b6 b1 53 bf 2c 67 78 bf 92 e3 f9 bf a6 d7 4c 3d
       -0.8269304 -0.9703243 -1.9522574 0.050010346
0000c0 f6 8f 8b bb d4 b6 ad 3d 97 50 56 3e 97 b8 20 3e
       -0.004259105 0.08482137 0.2092918 0.15695415
0000d0 b0 d0 25 3e e0 ed da 3c 0b c5 b1 3d 99 2f c0 3d
       0.16192889 0.026724756 0.08680161 0.093840785
0000e0 c6 a6 c0 3b e3 3f 26 be 2b c0 d0 3c 40 ca 00 bd
       0.005879256 -0.16235308 0.025482258 -0.03144288
0000f0 15 32 dc 3c 31 f3 a5 3d 67 b4 e4 bd dd 84 47 3e
       0.02687935 0.08103026 -0.111672215 0.19484277
000100 58 af 68 3d 31 cf 64 3d 62 03 3c 3e af 00 86 bc
       0.056807846 0.055861656 0.18360665 -0.016357748
000110 97 5d 88 3e 1b a4 43 3e a5 64 30 3e 3d 69 72 3d
       0.26633903 0.1910557 0.17225893 0.059182394
000120 0d 71 5b 3d 12 a4 a6 ba 38 ab 81 3e e7 5d d1 be
       0.05357461 -0.0012713692 0.25325942 -0.40891954
000130 67 a9 a4 3e ee d1 e2 bd b0 97 dd 3e 98 01 0a be
       0.32160494 -0.11075197 0.4327979 -0.1347717
000140 6c 80 5b bd de 79 b2 3e fa 69 a6 be 1b 8c c4 be
       -0.05358927 0.34858602 -0.3250273 -0.38388142
000150 5d ad bb bd 94 df 72 be 18 6d 29 3d 95 62 56 3e
       -0.09163926 -0.23718101 0.041363806 0.20936044
000160 09 76 2b 3d 75 43 02 bf 9e 63 5b 3e 3e 61 69 3e
       0.041860614 -0.5088418 0.2142472 0.22791001
000170 59 2a 13 be 87 70 0c 3e 8e 96 82 bd a9 f0 05 3d
       -0.14371623 0.13714801 -0.06376372 0.032700215
000180 c6 06 c7 bc 1a 0a 62 bd 29 4e cc bd 13 1a 8a be
       -0.024295222 -0.055185415 -0.09975845 -0.26973018
000190 c1 17 4f 3e 93 28 85 3e 0a 57 9c be cd 50 e8 be
       0.20223905 0.26007518 -0.30535156 -0.45374146
0001a0 9e 06 be bd d6 8c 7e bd 89 46 8d bd b9 dc 9a be
       -0.09278606 -0.06214603 -0.06898219 -0.30246523
0001b0 db df a7 be 87 c9 ff 3c ca 94 88 bd e2 92 ae 3e
       -0.32787976 0.031224025 -0.06669004 0.34096438
0001c0 26 fa df bd 7b b4 91 3d b1 b8 08 bd c2 19 3f be
       -0.10936384 0.07114502 -0.03337926 -0.1866217
0001d0 7e f2 18 bd 38 be 0d 3e 9f 64 c2 3c b9 f1 60 be
       -0.037340634 0.13842094 0.02372962 -0.2196721
0001e0 b6 9c 01 be 9a 79 00 be c8 0d 19 3e 7e 12 6c be
       -0.12657437 -0.12546387 0.14946663 -0.23053929
0001f0 7f ac 8d 3d 84 ce bd 3e e0 12 a8 bd 26 c7 b6 3c
       0.06917667 0.3707162 -0.08206725 0.022311758
000200 8d bd 92 bd 88 20 a3 bd 13 e3 3a be 3c 78 9c 3e
       -0.0716506 -0.07965189 -0.18250684 0.30560482
000210 bf f2 15 bf 19 e8 a9 bd a8 75 86 3d 60 29 20 bf
       -0.58573526 -0.08296222 0.0656541 -0.62563133
000220 a9 ac 65 be 08 31 db bd 74 33 53 3e 76 aa 1d 3e
       -0.22429146 -0.10702711 0.20625097 0.15397057
000230 77 3a 9e bd 2a 3c dd bd 2c 6e dd 3e fe 00 23 be
       -0.07725995 -0.10802491 0.43248117 -0.15918347
000240 bf 5e 9b be 63 0e 8b be 35 d8 ca bd 87 3a f0 bb
       -0.30345723 -0.27159414 -0.099045195 -0.0073311958
000250 cc 73 86 be 22 6a 47 3d ac ea 61 bf 1c 85 80 be
       -0.2626022 0.0486852 -0.88248706 -0.25101554
000260 06 fd eb be 84 41 98 3b 65 6b 7d 3d 25 c4 2b be
       -0.4609148 0.004646482 0.061869998 -0.16774042
000270 b0 65 97 bd ad 31 8a be e1 2f c7 3c 3e 10 20 bf
       -0.07392442 -0.26991025 0.024314823 -0.62524784
000280 8b ee e9 3c 16 9d 00 bf 2f dc dc bf 49 a8 83 be
       0.028556129 -0.50239694 -1.7254695 -0.2571433
000290 b1 56 db 3c d3 05 2e be 03 8d f9 be 9c 88 53 3d
       0.026774736 -0.1699441 -0.48740396 0.051643953
0002a0 ce 21 f1 bd 2f ee e0 be 83 a0 a7 3d b9 41 28 bf
       -0.11774026 -0.4393172 0.08184912 -0.65725285
0002b0 e8 a2 ca bf 62 0e 0d be 1e 28 ec 3c 7e cb 07 3e
       -1.5830965 -0.13775018 0.028827723 0.1326122
0002c0 dc 16 66 be f5 5b 73 be 6f b7 53 3d c5 e0 f2 be
       -0.22469658 -0.23765548 0.051688608 -0.4743711
0002d0 4f 82 74 3e fe 5d 23 bf c9 e2 15 c0 6e 10 9e bd
       0.23877834 -0.63815296 -2.3419669 -0.077179775
0002e0 31 e7 c5 3d 1a 4d cd bd 76 fb 25 3d b8 5c 3c 3d
       0.09663237 -0.100244716 0.040523015 0.04598686
0002f0 19 25 f5 3c 27 bf d1 bc 70 f4 cb 3e 2c 05 63 3e
       0.029924916 -0.025603844 0.3983493 0.22169942
000300 d3 22 b5 be d3 54 0b bf cc 92 09 c0 23 39 6a bd
       -0.3537813 -0.54426306 -2.1495848 -0.057183396
000310 fc 55 8f 3c 17 c5 cf bc 4e 7f a9 bd 3b 36 29 bd
       0.017497055 -0.025362534 -0.082762346 -0.041311484
000320 c4 fb 11 3d 03 4e 72 3d d6 c4 bd bc 9b e6 da bc
       0.035640493 0.05915643 -0.023165148 -0.02672129
000330 5c 79 41 bd de d5 95 bc bd 7d e3 3d 39 f6 27 3e
       -0.047234878 -0.018290456 0.11107967 0.1640252
000340 01 91 4f 3e 4d a4 e8 3d 2c c5 c1 bd 91 3b 11 3e
       0.20270158 0.11359463 -0.09461436 0.14182879
000350 ae 2e 56 b9 54 78 12 3d 96 17 67 3e 5f ba c9 bd
       -0.0002042602 0.035759285 0.22567591 -0.098500006
000360 6b 49 0a 3c 72 0b 94 3d 24 69 d8 3d f7 e4 77 bb
       0.008440356 0.072287455 0.10566929 -0.0037825683
000370 86 43 93 bc cb 47 a6 3b 9c e7 8c 3e 66 8a 90 bd
       -0.017976534 0.0050744764 0.27520454 -0.070576474
000380 fc 4c 17 be e8 55 ff bd e5 92 12 bf ac 05 1a be
       -0.14775461 -0.12467557 -0.57255393 -0.15041226
000390 ab 6f f7 3d e3 df 18 be 19 ff a4 bd da 01 10 3e
       0.12081846 -0.14929156 -0.080564685 0.14063206
0003a0 74 39 86 3d 67 65 cc bc 4c a2 33 3e e2 2b 07 be
       0.06553927 -0.024950696 0.1754238 -0.13200334
0003b0 b3 53 5c 3d 84 d6 98 bd 13 89 8e be 66 bb c1 bc
       0.05379076 -0.074627906 -0.27838954 -0.023648929
0003c0 6b 4c 0f bd 3d d5 e4 3e 1d 8d 1b be 8a ee ad 3d
       -0.034984987 0.44693938 -0.15190549 0.08492763
0003d0 49 66 60 3d b8 83 3e be 22 8e a2 3d 38 14 74 be
       0.054785047 -0.18604934 0.07937266 -0.23835838
0003e0 06 e9 69 bc a0 bf d3 3a d2 a5 ad bd 90 c9 10 b8
       -0.0142767485 0.0016155131 -0.08478893 -3.4519995e-05
0003f0 e2 83 ad 3c 55 d6 0c be 32 a9 38 3d 98 40 1b be
       0.02118105 -0.13753636 0.045083232 -0.1516136

fc1.bias f4 [64]
000000 70 a4 2b 3d 57 82 d0 3c 16 26 53 be 1f 2b b3 bd
       0.041904867 0.025452776 -0.20619997 -0.08748459
000010 8d 8c ba 3d da 9c 62 bc c1 ec 2f be f2 64 58 bd
       0.09108839 -0.013831342 -0.17180158 -0.052830644
000020 99 eb a8 3d c4 eb c0 be 87 81 d8 3d da cc 75 3e
       0.08248062 -0.37679875 0.105715804 0.24003926
000030 ae ac 91 3d b8 19 3a 3e 69 51 63 be b8 81 36 be
       0.07113014 0.18173873 -0.22199024 -0.17822921
000040 3c a9 e9 bc 63 6e 75 bc dd 43 04 bd 5c 8e 8a be
       -0.02852308 -0.0149799315 -0.032291282 -0.27061737
000050 df d1 97 be d4 85 34 bd c2 2d e2 bd b9 7b 5a be
       -0.29652306 -0.04407294 -0.11043884 -0.21336259
000060 cb ef fd bd 36 61 11 bd 72 1c 55 ba 02 c8 5b be
       -0.123992525 -0.0354931 -0.0008129544 -0.21463016
000070 4a 0d 39 3e 51 a0 e1 3c ac a5 24 be 58 52 80 be
       0.18071476 0.027542265 -0.16078824 -0.25062823
000080 98 03 33 3e 46 4a 3e 3d d2 3c 3e be 48 43 2a bd
       0.1748184 0.04645755 -0.18577889 -0.04156807
000090 b8 31 ae bd 40 00 b0 3d 17 a6 9c bc 59 bc bd bd
       -0.08505577 0.08593798 -0.019122167 -0.0926444
0000a0 1b c0 cd bd d1 a2 cb bd 0c 12 52 be c7 6b 24 3e
       -0.10046407 -0.09943164 -0.20514697 0.16056739
0000b0 75 cc 09 be b7 b1 7c bd c3 f3 9e bd 1a 88 4a be
       -0.134569 -0.06169292 -0.077613376 -0.19778481
0000c0 df 63 63 be a1 38 9b bd 59 7a 47 be e2 d2 2d 3c
       -0.22206067 -0.075791605 -0.19480266 0.01060936
0000d0 5c f2 38 bd a1 1a 2d be 50 91 75 be d6 dc b4 bd
       -0.045153007 -0.1690469 -0.23981214 -0.088311836
0000e0 e8 fc 66 bc 9c 3c 2a be 4c a7 b9 bd 53 3c 28 be
       -0.0140983835 -0.16624683 -0.090651125 -0.16429262
0000f0 5d 24 14 3b a5 52 ce 3d 7e 07 cc bd 42 05 2c be
       0.0022604682 0.10074357 -0.099623665 -0.1679888

fc2.weight f4 [64, 64]
000000 d7 09 42 bf ae 07 74 3e ba 74 20 be 7e 16 d8 3d
       -0.75796264 0.23831055 -0.15669528 0.10551165
000010 f5 6f a5 3e df 0a d5 bc 93 5d f2 3d 2d 04 0f be
       0.3231198 -0.02600616 0.11834254 -0.13966437
000020 93 f5 13 3e d0 bc 07 b9 97 7f e2 3d 4a 2f 5c bd
       0.14449148 -0.00012944941 0.11059492 -0.053756036
000030 7d ec cb 3d dc 90 a1 3d 83 ab 64 3d ef b0 b7 bd
       0.09957216 0.07888958 0.05582763 -0.08969294
000040 63 65 88 3c 8b 95 71 3e a0 64 ee 3d d3 e4 12 be
       0.016649907 0.23592202 0.116402864 -0.14345102
000050 08 c6 91 bd a1 43 c3 bd 5d 41 53 3e 4b 11 72 be
       -0.071178496 -0.095343836 0.20630403 -0.23639409
000060 83 c1 9e 3e b7 09 73 3e 82 82 c1 3e 7e 53 7e 3e
       0.31007013 0.23734175 0.37794882 0.24836537
000070 a2 44 00 3e a7 8d b0 3e ae ab 49 3e 81 72 04 be
       0.12526181 0.34483072 0.19694397 -0.12934305
000080 17 8c 85 3e 33 3d ba 3c c0 1d 2d 3d 3b da 85 3e
       0.26083443 0.02273426 0.0422647 0.2614306
000090 62 97 e4 bd 2d 04 9e 3e 5d 45 ad 3e 08 8c a7 be
       -0.111616865 0.3086256 0.33841982 -0.32724023
0000a0 d7 d3 7b bd fe 6e 41 be 3d 35 93 3d af 16 d1 bb
       -0.061481323 -0.18889996 0.07187889 -0.006380878
0000b0 2d 66 90 be ab c2 1f bf 67 bb 0c be 89 f8 47 bd
       -0.28202954 -0.62406415 -0.13743363 -0.048821006
0000c0 30 81 43 3d 17 39 ba bd ed 03 32 be e7 d3 35 bd
       0.047730625 -0.0909292 -0.1738431 -0.04439154
0000d0 2c 51 1f bd 6e 3f f9 3c 2c 1f c7 bd 73 8f 3a 3d
       -0.03889577 0.030425753 -0.097227424 0.04554696
0000e0 a1 39 9f 3e db 4e 2b be fe 9b f5 3c df df 96 3d
       0.31098655 -0.167293 0.02998161 0.07366919
0000f0 04 56 44 3e ce db 86 3e b7 99 92 bd df 85 cd 3c
       0.19173437 0.26339573 -0.07158225 0.025088249
000100 a3 ef 9d 3d ad 93 5c 3e 5d c9 f5 bd ce 8a 6e be
       0.07711723 0.21540709 -0.120012976 -0.23295137
000110 32 60 1b 3e 0e 8a 45 3e c1 76 e5 bd 4e 05 cf be
       0.15173414 0.19290945 -0.11204291 -0.40433735
000120 57 47 90 3e 51 58 31 be 09 c1 80 bd 6a 3e 36 3e
       0.28179428 -0.17318846 -0.062868185 0.17797247
000130 ba b0 3b be 0b 6f e0 3d 0f 95 ff bc 37 2d de bd
       -0.18329135 0.1095868 -0.031199006 -0.10848468
000140 8c 02 de bb dd 38 97 3e fb d5 97 be 64 6c 82 3d
       -0.006775206 0.2953557 -0.29655442 0.0636833
000150 f9 3f 63 bd 5e 82 67 be 2b cd 55 be 00 b9 f9 3d
       -0.05548093 -0.22608325 -0.20879047 0.12193489
000160 b4 38 93 bd 90 fc 70 bd 5a 7d a4 be a0 6d 2c be
       -0.0718855 -0.058834612 -0.32126886 -0.16838694
000170 c6 aa f3 3d 33 de 2f be 8b 45 9c 3d aa 34 55 3b
       0.11897807 -0.17174606 0.07630452 0.003253261
000180 e6 d9 d1 3d f6 43 21 3e 79 45 77 bc a8 db ec be
       0.10246639 0.15748581 -0.015092247 -0.46261334
000190 f5 82 29 3e 31 f9 0d be 54 31 94 3d c7 80 0e bd
       0.16553862 -0.1386459 0.07235971 -0.03479078
0001a0 79 a6 f2 be 23 4b 2b 3c 44 6e 48 3e 3c 2a 34 bd
       -0.47392634 0.010454926 0.19573313 -0.04398559
0001b0 fb 22 53 3d 41 f0 19 bf f7 07 ee be 87 fc 78 3d
       0.05154703 -0.60132223 -0.46490452 0.060787704
0001c0 a4 99 97 3d f3 a9 b1 bc 3b e2 bd 3c e6 5d 05 3e
       0.074023515 -0.021687483 0.023179164 0.130241
0001d0 36 5c 13 bd 1a a2 fa be 3a e3 fa bd 1b a2 b9 bd
       -0.03597661 -0.489518 -0.12250371 -0.09064122
0001e0 96 87 cf bd 70 5b 9c 3e ab fd 10 be 49 e6 cb 3e
       -0.10133283 0.3053851 -0.14159267 0.3982413
0001f0 d7 f1 ef 3d 6c 01 af be d3 36 53 3e 53 0a 99 3c
       0.11716049 -0.34180772 0.20626383 0.01868168
000200 2b f0 03 bd 78 8b df bd 07 ca 0f be 28 53 b2 be
       -0.032211464 -0.109152734 -0.14041911 -0.34829068
000210 6a ef 96 3c 08 a4 56 3d d7 3e 24 be 45 78 86 3e
       0.018424708 0.052402526 -0.16039596 0.26263633
000220 2e e9 c6 3d 1e 80 e9 be 4f dc 2c be bf cd 85 bc
       0.09712444 -0.45605558 -0.16880916 -0.016333459
000230 26 b9 4c bd 22 29 2a 3e 06 dc 9d 3e 98 e3 d6 bd
       -0.04998126 0.16617253 0.30831927 -0.10492629
000240 8a c0 9c be 97 8b 1d 3d 83 d2 86 bd c2 8e c8 bd
       -0.30615646 0.0384632 -0.06583121 -0.09792854
000250 bc 51 09 be 08 f9 05 3e 38 a8 7e 3e 77 0a 7e 3e
       -0.13410085 0.13083279 0.24868858 0.2480868
000260 6f 10 77 bd fb a3 0b bd c2 b4 c0 bd d6 64 ad bd
       -0.060318407 -0.03409193 -0.09409477 -0.084664986
000270 84 02 b1 bd 7d 75 90 3e 5e 83 ab be 4b cb 31 3e
       -0.08643058 0.28214636 -0.33498663 0.17362706
000280 ed 52 9f 3d 48 e0 d6 3e 7a 21 68 be 3f fc a7 bd
       0.07779489 0.41967988 -0.2266902 -0.08202409
000290 ee 37 ee bd bb 46 b4 bd 76 18 97 3d b3 d7 bf bc
       -0.116317615 -0.08802553 0.073777124 -0.023418283
0002a0 1b da 21 3c 7f 65 5b 3d d3 62 49 3e fd e8 94 3d
       0.009878661 0.05356359 0.19666605 0.072710015
0002b0 03 0c 32 3d aa 10 93 3d 36 d7 8f bd 70 a9 cb 3d
       0.043468487 0.07180913 -0.0702347 0.09944427
0002c0 6e 86 55 3c ae 1e a0 bd b6 cf 98 3d 81 dc d8 bc
       0.013032539 -0.07818352 0.07461493 -0.026472332
0002d0 be c0 2f be 1d 54 7a be d4 a4 b3 bd 94 8c f7 3d
       -0.17163369 -0.24446149 -0.08771673 0.1208736
0002e0 b5 c1 bb bc bd 9d e0 bd 57 24 cb 3d 52 12 de 3d
       -0.022919515 -0.10967586 0.09919041 0.10843338
0002f0 38 5b 4e be b7 c0 ae 3d b2 80 83 be 14 c1 49 3d
       -0.20151985 0.08532851 -0.25684124 0.0492564
000300 47 38 0e 3d 4f 2c 75 3c bb 9d 40 be 8e 3b 39 bb
       0.03472164 0.014964177 -0.1881017 -0.0028264257
000310 aa 7f 87 be 77 86 86 bc 07 e5 44 bd d2 79 c5 be
       -0.26464587 -0.01642154 -0.04806998 -0.38569504
000320 9d e9 58 be fb 96 88 bb b7 b2 7c 3e 5f 2a ac be
       -0.21182866 -0.004168389 0.2467755 -0.33626077
000330 33 be ec bd c0 64 20 3e 7c cd d3 bc 40 f4 a8 be
       -0.11559715 0.15663433 -0.025854819 -0.32998848
000340 b4 7d 79 bd c8 63 28 be 73 1f b9 be 00 39 90 be
       -0.060910895 -0.16444314 -0.36156806 -0.28168488
000350 80 9c 15 3d 54 89 e4 3d 7c 00 4f 3d 8f 35 ff bc
       0.036526203 0.11159006 0.05053757 -0.031153468
000360 c3 60 1b bf 6e 0f a1 be 2b 35 e4 be e4 fd 49 be
       -0.6069452 -0.31457084 -0.44571814 -0.19725758
000370 13 63 69 be ef 2d e5 be f6 b2 ab bd 55 28 2a be
       -0.227917 -0.44761607 -0.083837435 -0.16616948
000380 aa 26 c1 bd 75 dd ca 3e e6 13 1c 3e a3 14 e1 3d
       -0.09431203 0.39622083 0.15241966 0.10990264
000390 b3 f5 87 be cb 7e 19 be f1 d0 0c 3f 04 84 b5 3d
       -0.2655464 -0.14989774 0.5500632 0.088630706
0003a0 2b b0 9d 3e 09 ce 3c be e4 0d 5f 3d 57 aa 90 bc
       0.30798468 -0.18437971 0.054456607 -0.01765935
0003b0 31 4c d8 3d 63 d6 ea bb d5 3c 52 3e 0a 04 45 be
       0.10561407 -0.00716667 0.20531018 -0.19239822
0003c0 b4 f9 e3 bd d8 c0 c0 bd fe 39 b8 3d d8 3d f2 3d
       -0.111316115 -0.09411782 0.08995436 0.11828202
0003d0 59 69 63 be a6 c3 11 be c5 7b 94 3d ee 8a 05 be
       -0.22208156 -0.1423479 0.0725017 -0.13041279
0003e0 2e ab 34 be 57 de 1e be 3c 9b ac bc 24 8d 59 3e
       -0.17643425 -0.15514503 -0.021070115 0.21245247
0003f0 19 a3 e1 ba d8 0f 4b bf c0 0d 4e bc a9 2a 6b be
       -0.0017214745 -0.7932105 -0.01257652 -0.22965492

fc2.bias f4 [64]
000000 43 11 b6 be 48 fa be be f2 bb 95 3d d9 c8 37 bd
       -0.35560045 -0.37300324 0.07311238 -0.044869278
000010 b2 c4 97 3d ec b9 91 be 56 e3 44 bd 7e c4 61 be
       0.074105635 -0.2846216 -0.048068367 -0.22047612
000020 a4 10 ab bc 22 29 08 3f bf 98 93 bd 77 ae dc bd
       -0.020881958 0.53187764 -0.072068684 -0.10775464
000030 c8 92 4a 3e 52 4e 37 be 84 1f 1a be a6 11 78 be
       0.19782555 -0.1790097 -0.15051085 -0.24225482
000040 77 ec ae 3c 6c 62 2f be 37 2c 00 be 84 a4 23 3e
       0.02135299 -0.17127389 -0.12516867 0.15980726
000050 e8 cc 21 3d 12 cb 0c 3f b3 2a 1a be 20 82 b6 be
       0.039502054 0.5499736 -0.15055351 -0.35646152
000060 dd a8 a4 be 28 7e 48 bd ed 82 34 be 43 4c aa bc
       -0.32160082 -0.048948437 -0.17628069 -0.020788318
000070 8c aa 5f be f9 1d 6b 3c 15 b6 21 be 02 88 8b bb
       -0.21842402 0.014350408 -0.15792115 -0.0042581568
000080 0d 6b 8f be 0a dd 86 bc b4 b1 f8 3b 87 6c d4 bd
       -0.2801136 -0.016462822 0.0075895432 -0.103722624
000090 ec c0 45 be 0d 00 4a be 52 5c 1f 3d 4b 51 01 be
       -0.19311875 -0.19726582 0.038906403 -0.12628667
0000a0 46 f8 7d be ee dc 33 3f ed 8f e8 3d a6 09 f2 bd
       -0.2480174 0.70258987 0.11355577 -0.118182465
0000b0 e8 69 ff 3c 6e 6f 38 be 8c b6 e2 3e 5a ef 96 be
       0.03117843 -0.18011257 0.44279897 -0.29479486
0000c0 a3 ab 8e bd e3 b2 3c be 10 fd 73 be 94 3c bf 3e
       -0.06966331 -0.18427615 -0.23827004 0.37350905
0000d0 2e 0b 05 be 50 c9 ac bd 2a 8f d6 3c 24 75 5d be
       -0.12992546 -0.08436835 0.026191313 -0.21626717
0000e0 fc 72 ad be dc f7 5e be ba e2 53 3c 1c 6a 1e bc
       -0.3387679 -0.21774238 0.012932474 -0.009668853
0000f0 9f 8d 90 3d 49 b6 9d 3e 37 46 64 bd fa 91 d2 be
       0.07058262 0.30803135 -0.055731025 -0.41126996

fc3.weight f4 [4, 64]
000000 7b 82 27 bd 4c 47 87 bd 49 8a bf bb 0c e3 6a 3e
       -0.04089592 -0.06605396 -0.0058453423 0.22938174
000010 7f b2 73 3e 7e f0 30 be f8 dd ca 3d 20 08 51 bd
       0.2379856 -0.1727924 0.099056184 -0.05103314
000020 35 9c f5 3c 34 bd 3a 3e 41 09 c2 be 52 f5 e6 be
       0.029981712 0.18236238 -0.37897685 -0.4510904
000030 4d a0 3b 3d 74 8d 25 bd 1a f8 44 be a9 52 47 be
       0.04580717 -0.040418103 -0.19235268 -0.19465126
000040 8a 90 0d 3e a9 6e 0c 3d 56 38 04 3e a2 ec 40 3e
       0.13824669 0.03428522 0.12912115 0.18840268
000050 8c 56 4c 3e 55 79 37 3e da 4c c4 3d c4 4d de be
       0.1995489 0.17917378 0.09584971 -0.43418705
000060 26 bf d6 be 0f c7 31 bd 28 53 bf bd 2d 09 ca 3d
       -0.4194271 -0.043402728 -0.09342033 0.098650314
000070 b3 03 53 be e4 fd a2 3c c8 59 62 be b1 40 6b 3e
       -0.2060688 0.019896455 -0.22104561 0.22973897
000080 92 8b ad be dd 35 ca bd f0 e7 78 3d 65 0c be bd
       -0.33895546 -0.09873555 0.060768068 -0.09279708
000090 86 f1 a7 be a7 7b 99 bd bd e3 e4 3e 82 86 57 3e
       -0.32801455 -0.07494288 0.44705 0.21047404
0000a0 18 2c 1b bf 99 63 58 3e 07 02 60 3e f6 eb ef 3d
       -0.60614157 0.21131743 0.21875773 0.11714928
0000b0 78 96 8f 3c da ac c6 3e f9 0b 80 3e 69 52 56 be
       0.017527804 0.3880375 0.25009134 -0.20929874
0000c0 31 22 a0 bd 38 c5 e3 3e 3b fe 62 be 7f b7 b5 3e
       -0.078190215 0.44486403 -0.22167294 0.3549156
0000d0 ec 7b 19 3e c6 f3 7a 3d 19 9f aa 3d 32 96 8d be
       0.14988679 0.061267637 0.08331127 -0.27653652
0000e0 ef c9 e1 be 51 98 14 3b 5a ac 82 3e b9 86 fa 3e
       -0.44099376 0.0022673795 0.2552212 0.4893091
0000f0 a1 c7 cc 3e 02 d8 71 3e 1d 63 1a bd 8d 3f 38 be
       0.39996055 0.23617557 -0.037692178 -0.17992993
000100 b5 2d 99 bd 7f 72 80 bd c5 fe 94 3d 4e 00 c1 3e
       -0.07479421 -0.062718384 0.07275156 0.37695545
000110 43 ff 9b 3e 86 49 78 3e 7a 35 ec be 9e 76 25 bc
       0.30468187 0.24246797 -0.4613455 -0.010099081
000120 dd 1e f7 bd c1 a6 2c 3e 60 5e 84 bd 94 51 06 be
       -0.120664336 0.16860487 -0.06463313 -0.13117057
000130 d1 1e dc 3d 58 82 8c 3e dc bf 19 3d a4 7c 13 be
       0.10748065 0.27443194 0.037536487 -0.14403015
000140 2d 7f 8e 3e 02 c8 16 bd 21 6e 6c 3e 07 95 1c 3e
       0.27831402 -0.036811836 0.23088886 0.15291224
000150 67 7e 90 3e 2c 44 43 3e f9 49 b5 3d cf ca 6e be
       0.28221437 0.19068974 0.08852 -0.23319553
000160 50 e4 de bd 1a b7 42 bd e5 08 f6 bd e5 db 1f 3e
       -0.10883391 -0.0475379 -0.12013415 0.15611227
000170 e1 c6 94 3e 31 e1 76 3d f8 de cb be 6d ab 57 3e
       0.29057983 0.060273353 -0.3981855 0.21061487
000180 25 78 43 be 0c 85 47 3e fe 63 23 3e 68 5b b2 be
       -0.190888 0.19484347 0.15956113 -0.34835362
000190 34 f7 08 3e dc de 7c be 95 bf db 3e af 8b e2 3e
       0.1337555 -0.24694389 0.42919603 0.44247195
0001a0 70 5e 14 3d 7c 99 6a 3e f7 63 19 3e 83 4b 07 bd
       0.036222875 0.22910112 0.1497954 -0.033030998
0001b0 89 36 2c be 53 e1 21 be 92 aa 1d 3e 49 3e 36 bf
       -0.16817679 -0.1580861 0.15397099 -0.7118879
0001c0 33 f0 55 3d 69 c8 be 3e ff d2 98 be 7b be 8a 3e
       0.052231025 0.37262276 -0.29848477 0.2709845
0001d0 ae ae 71 bc a4 ed 02 3f 77 77 0a 3e 6e 28 e7 3e
       -0.01475112 0.5114386 0.13522135 0.45148033
0001e0 b5 72 be bd 55 0f 21 be ab 77 63 3e 75 c4 36 3e
       -0.092992224 -0.15728505 0.22213618 0.1784838
0001f0 c3 5b 73 3e 9d c9 eb 3d fa 2a 05 3e cd 1c 05 be
       0.23765473 0.11513064 0.13004676 -0.12999268
000200 9f 6d 5c be 19 1f d0 3e 21 c9 db 3d 0e 0c cc 3e
       -0.21526192 0.40648726 0.10731722 0.39852947
000210 8b 63 97 3e ac 98 05 3f 2d 0a 0f 3f f4 d4 0b be
       0.29568133 0.52186084 0.558749 -0.13655454
000220 6e 7c 23 3e b8 15 dc 3d 3a c8 2e bf 45 2f 3a be
       0.15965435 0.1074633 -0.6827427 -0.18182094
000230 8d 2a 28 3e 34 ae 1f bf 6c 93 90 be 81 e2 88 3d
       0.16422482 -0.6237519 -0.28237474 0.06683827
000240 44 9b a7 3e aa 4d 34 3c 36 fb e6 3d eb 22 d2 bc
       0.32735646 0.011004845 0.112783834 -0.025651416
000250 74 c7 31 3d 64 60 86 3e 47 6c 04 bf 4d 0b 66 bd
       0.043403104 0.26245415 -0.5172772 -0.05616312
000260 ab 10 db 3e d0 db 5b be d0 ca 3b 3e 61 08 9c 3e
       0.42786154 -0.2147057 0.18339086 0.30475143
000270 96 dc 2c be 47 45 71 3e 7a 5f 03 be 04 8d 87 3d
       -0.16881022 0.23561583 -0.1282939 0.066186935
000280 0d b5 14 3e 10 36 43 be 6f 53 82 bc 87 d4 bd 3e
       0.1452219 -0.19063592 -0.015908925 0.37076208
000290 38 ff 35 3e 92 1e d2 be 34 a9 9d 3d c4 46 02 3f
       0.1777314 -0.41038948 0.076982886 0.5088923
0002a0 37 1f a4 3d 98 31 78 3e 4d 78 f9 3d 60 e6 27 3e
       0.08013766 0.24237669 0.12181149 0.16396475
0002b0 d0 f7 a2 3d 82 24 03 3d 69 3e 80 3e f5 79 14 3e
       0.07957423 0.03201724 0.25047615 0.14499648
0002c0 c0 06 47 bd cf 32 09 be 81 d5 ab be 3f ee 74 3e
       -0.04859042 -0.13398288 -0.33561328 0.23919009
0002d0 f8 09 19 be 9e 15 d0 3e dd 83 ee 3d c1 b2 65 bd
       -0.14945209 0.40641493 0.11646245 -0.056078676
0002e0 bb 22 c1 be 0d b4 53 3d db b2 b3 3e d7 d3 22 3e
       -0.3772181 0.05168538 0.35097393 0.15901123
0002f0 31 b3 85 3e d9 24 23 3e f4 7f 9c be f6 09 b7 be
       0.26113275 0.15932025 -0.3056637 -0.35749787
000300 fa 0f 92 be f3 2f 3f 3e 4d 90 19 3e a4 3a a5 3c
       -0.28527814 0.18670635 0.14996453 0.020169564
000310 eb 3e 83 3e c4 55 9b 3d 6a 8c 87 3e cb 5f 87 bd
       0.2563394 0.07584718 0.26474315 -0.06610068
000320 5d 05 d4 3c ff d0 5c 3e 1f ef ab be 4d 88 a9 be
       0.025881464 0.215641 -0.33580872 -0.33111802
000330 fa 21 50 3e 44 a0 31 3e b8 27 b3 bd a8 e1 b0 bd
       0.20325461 0.17346293 -0.0874781 -0.086367905
000340 b1 72 f2 3e 05 bc f1 bb 3d b1 f2 3e 84 4c a0 3d
       0.47353128 -0.00737715 0.47400847 0.07827094
000350 f2 d2 b1 bd 9e 47 81 3e bc 7e ea 3d 9d b9 c7 3d
       -0.08682813 0.25249952 0.11449954 0.097522
000360 a2 4b a7 3d a3 4c 1c be 60 88 8a bd b1 67 47 3e
       0.08168723 -0.1526361 -0.06764293 0.19473149
000370 22 49 04 3f 4a 21 e7 3d e5 bd 9f bd be ab 88 3e
       0.5167409 0.11285646 -0.077998914 0.2669353
000380 58 c1 16 bf 65 42 b5 3e d3 7c 0c 3d 94 2d 8f be
       -0.5888877 0.35402218 0.03429873 -0.2796446
000390 fc 53 9e 3e 4c c3 6f 3e 60 ee ba 3e 41 55 96 be
       0.3092345 0.23414344 0.3650999 -0.2936192
0003a0 fa 17 c7 be 34 23 7f 3e 35 5c 97 3e ab ff c5 be
       -0.3888548 0.24915773 0.29562536 -0.38671622
0003b0 4d a9 ae 3d 4f 43 a6 be e9 39 94 3d 24 62 bc 3c
       0.08528385 -0.32473227 0.07237608 0.022996016
0003c0 1a 70 8a 3c bc 9c fd 3d 11 b9 70 bd 7f 05 89 3e
       0.016899157 0.1238341 -0.058770243 0.26762006
0003d0 b5 3d 03 3e 16 0b bd bd b7 09 4e 3e 65 bd 59 3e
       0.12816508 -0.0923063 0.20120893 0.21263655
0003e0 85 65 91 be 29 86 87 be 56 c6 1f 3e a4 67 ab 3e
       -0.28397766 -0.26469544 0.15603003 0.3347751
0003f0 7b df 1a 3e df 41 0c 3e f9 3a 2a be da 5d fa bd
       0.15124314 0.13697003 -0.16624059 -0.12224932

fc3.bias f4 [4]
000000 fe 06 d2 3e f9 50 da 3e 36 68 cd 3e 68 dc ca 3e
       0.4102096 0.42639902 0.4011857 0.39621282
